experiments/2022-6-29_linear/save/linear_bin_class.pth (torch, 49299 bytes, 5 tensors)

fc1.weight f4 [64, 51]
000000 a0 16 cb 3d 34 a0 78 3d 1a 31 30 3f 4f 56 e2 3d
       0.09916425 0.060699657 0.68824923 0.11051618
000010 84 f1 94 bd 57 e8 04 3f 2d ee 99 bd 10 a6 f5 3c
       -0.07272628 0.5191702 -0.075161316 0.029986411
000020 2d d9 0e 3f 54 7a cc bd e7 41 b6 3d 8f 60 af 3e
       0.55800134 -0.0998427 0.088992886 0.34253356
000030 09 3d e9 3d da ea aa bc 98 2c 24 3e da 47 c7 bc
       0.11388595 -0.02086394 0.16032636 -0.024326254
000040 30 74 e6 3d d4 88 21 be 56 65 44 bd 5c 18 30 3d
       0.1125263 -0.15774852 -0.047948204 0.04299198
000050 f8 d3 9c be b0 97 6f bd 38 d9 96 bd c2 5a d2 3d
       -0.3063047 -0.05849427 -0.0736565 0.10271217
000060 7c ee 88 bd f4 9e 7c bd cd 5e 11 be 51 b7 46 be
       -0.06686112 -0.061675027 -0.1419632 -0.19405867
000070 e8 bd 96 3d 5e 75 4c 3f c6 a5 5d 3e fb ad 49 bd
       0.073604405 0.7986659 0.21645269 -0.049238186
000080 c0 74 8e 3f 57 6d 05 3d 04 53 af bd 88 53 41 be
       1.1129379 0.032574978 -0.08560756 -0.18879521
000090 47 f3 25 3d 93 b2 9e 3d df c3 be be dd 1b f2 bd
       0.04051521 0.07748904 -0.37258813 -0.11821721
0000a0 96 41 ea bb 62 ba 2e be 57 67 df 3d 1d 29 b9 3d
       -0.0071489317 -0.17063287 0.109083824 0.09041045
0000b0 58 82 0d be 7e ba 28 be 0e 9f 97 3c 76 6b 63 bd
       -0.13819253 -0.16477391 0.01850846 -0.055522405
0000c0 58 a1 08 3e 26 43 22 be a8 76 a3 be d9 4e 82 bd
       0.13342798 -0.15845928 -0.31926465 -0.06362695
0000d0 24 a0 b0 bd c0 2e 62 3e 47 16 fe 3c 3f b6 31 3d
       -0.086242944 0.22088146 0.031016482 0.043386694
0000e0 35 65 16 3e 91 ee 5f bc 24 0d de 3d 13 72 a3 bb
       0.14687045 -0.0136677185 0.1084235 -0.004987964
0000f0 73 05 eb 3a 7f fa b0 bd 1d 20 06 3e 26 4c 70 bd
       0.0017930701 -0.08641528 0.13098188 -0.05866637
000100 49 01 57 3d 20 13 e7 3a d3 16 e0 3d 0b 38 7a bd
       0.05249146 0.0017629601 0.109418534 -0.061088603
000110 38 e5 79 bd e5 9a c0 bd 67 19 17 3e 64 9b 93 3d
       -0.061009616 -0.09404544 0.14755784 0.07207373
000120 9a 34 05 3e 3c de c7 bd 50 93 e2 bd 2e 49 fd bd
       0.13008347 -0.09759185 -0.11063254 -0.123674735
000130 b5 a5 a2 bd f5 46 dd 3d 8c 96 46 3d 13 64 0c 3e
       -0.07941762 0.108045496 0.048483416 0.1371005
000140 e2 69 83 bc df 9d eb bd b6 2b c6 3d df 92 22 3d
       -0.0160417 -0.11504721 0.09676306 0.03969085
000150 78 c2 a0 3d a1 f1 9d bc 13 22 c4 3d fc 86 f2 bd
       0.07849592 -0.019280257 0.09576812 -0.118421525
000160 27 be 66 bd bf 52 58 3d 27 ee c1 3c 64 ae d7 bc
       -0.056333687 0.052813288 0.02367313 -0.026328273
000170 60 f0 d6 3d 2c dc ab 3d 8d 91 b9 bd 37 dd 4f bd
       0.10495067 0.08391604 -0.09060965 -0.050748076
000180 09 41 01 3e 3d f7 2d bd d3 4c f2 bc 6b ef 14 be
       0.12622465 -0.042472113 -0.029577648 -0.14544456
000190 59 7a 98 bd 4f c7 7f 3d 1f 69 97 bc ed 2a d0 bd
       -0.07445211 0.062445935 -0.018482743 -0.101644374
0001a0 58 42 57 3b 6f e4 c3 bd 0c 4d f3 bd e7 ea 9d bd
       0.003284594 -0.095650546 -0.1187993 -0.0771082
0001b0 b4 fd fa bd 21 9a b6 bd 26 55 0f 3e 07 a9 d8 3c
       -0.12255421 -0.089161165 0.13997325 0.026447786
0001c0 18 bf 30 3d 83 bc 05 be 0e 59 bc bd 3a e9 3e bd
       0.04315099 -0.13060193 -0.09196673 -0.04660914
0001d0 f2 5f b3 3c 6e 57 fc bd 18 21 77 bd 42 af ab bd
       0.021896336 -0.123213634 -0.060334295 -0.08383037
0001e0 b3 73 cb 39 ec 6b 55 bd cb fa 1e bc 31 54 c2 bd
       0.0003880538 -0.052104875 -0.009703348 -0.094887145
0001f0 b5 d7 c4 bd 73 4e a7 bd 8a 53 44 bd 10 59 e2 bd
       -0.09611455 -0.0816926 -0.04793123 -0.110521436
000200 46 74 f0 3d f4 a8 e3 bc 09 be f6 3d 9a b5 32 3d
       0.117409274 -0.027790524 0.12047965 0.04363022
000210 9c d7 f2 bd c5 75 c6 3d 84 cf 1d bd c5 db 5b bd
       -0.118575305 0.096904315 -0.03852798 -0.053676385
000220 a2 0b ee bd 28 8d 0e be a1 19 24 3d 3c 94 fa bc
       -0.116233125 -0.13921034 0.040063504 -0.030588262
000230 52 4c 5f 3d 04 59 eb bd 71 e9 d4 3d 8f 82 d2 bd
       0.054516144 -0.11491588 0.10396088 -0.10278808
000240 43 13 c6 bc ae 98 ef 3c a1 0c 94 3d b2 84 e7 3d
       -0.024179107 0.029247608 0.07228971 0.113046065
000250 0a 9f 02 3e 63 64 e3 bd 4f 58 10 3d 66 b3 76 bd
       0.12755981 -0.111031316 0.035240468 -0.06022968
000260 5b 69 7b bc f4 d5 fa bd 90 6f a9 3d 70 d2 fe bd
       -0.015344943 -0.122478396 0.08273232 -0.124424815
000270 ad 9a 63 3d 5a 43 27 3c 1c ed 10 3d aa d0 bd bd
       0.055567432 0.010208929 0.035382375 -0.09268315
000280 aa c8 ba 3d 0a 90 97 3c 32 09 2b 3a 70 da 25 be
       0.09120305 0.0185013 0.00065245025 -0.16196609
000290 0c 95 f8 3c d8 56 20 bd db 21 cf bd e9 4b d5 3d
       0.030344509 -0.03914532 -0.10113879 0.10414869
0002a0 88 5a 63 3c f0 cb eb bd 44 13 bf bd 32 8c cb bc
       0.013876565 -0.11513507 -0.093298465 -0.024847124
0002b0 c5 9b 28 3d 05 90 65 bd 62 aa c9 bd 2a a5 aa bd
       0.04116418 -0.05604555 -0.09846951 -0.08332284
0002c0 b7 25 f8 bd 85 eb fa 3c 7f 94 96 3d 3b 58 13 be
       -0.121165685 0.030629883 0.07352542 -0.14389126
0002d0 8c 3c 4e 3c ce a0 0b 3d 68 1a 77 ba ca a6 8b bd
       0.012587678 0.034088902 -0.0009426237 -0.06818922
0002e0 e2 20 14 3d 02 be 5c 3d 38 ad 0e 3d ed 3b 66 bd
       0.036164172 0.053892143 0.034833163 -0.056209493
0002f0 25 d5 70 bd 7a 71 52 bb 60 ed 65 bd d2 6a 7b bd
       -0.05879702 -0.0032111094 -0.05613458 -0.06138117
000300 2d f8 8f 3d 81 22 bb 3d 8e 90 3a bd 38 c2 4b bd
       0.07029758 0.091374405 -0.045548014 -0.04974577
000310 f2 f2 d5 bc 9d ee e8 bc b3 7c 3e 3c c1 42 46 3c
       -0.026116822 -0.028434092 0.01162641 0.012100876
000320 43 a3 14 be d4 21 8e bd 5a 4c bf 3d c7 e4 2e 3d
       -0.14515404 -0.06940046 0.09340735 0.042698648
000330 c0 37 e4 bb 55 e6 ac bd ad 73 af bd 5e 71 00 be
       -0.0069646537 -0.0844237 -0.08566985 -0.12543246
000340 11 f5 3a bd 1c b1 41 3d ff da b6 3d 84 67 84 3d
       -0.04564387 0.047288045 0.08928489 0.064650565
000350 c2 7e fd bd 08 75 ac bd 71 08 b5 bc fd b4 0a 3e
       -0.12377693 -0.084207594 -0.022098752 0.13545604
000360 20 f0 a5 3c ad 88 14 bd d1 49 6d 3d d8 74 5a bd
       0.020256102 -0.036263157 0.057931725 -0.053334087
000370 47 9e b9 bd ae 50 d1 3d ef 65 82 bd 13 f5 e5 bc
       -0.09063392 0.102204666 -0.063670985 -0.028070962
000380 c8 a4 0e be 82 ee bf 3d c1 45 d9 3d ef 07 51 3d
       -0.13930047 0.09371664 0.106090076 0.051032957
000390 64 f6 c7 bd 1a 84 0d be 20 ea e8 bd 97 d9 d5 3d
       -0.09763792 -0.13819924 -0.11372781 0.104418926
0003a0 f8 ae 89 3d 0e 53 f1 3d e9 3b 96 3d 87 29 11 3d
       0.06722826 0.117834195 0.07335646 0.035439994
0003b0 86 bb b3 ba 8e 18 da bd f0 b3 f5 bd 50 1e 06 be
       -0.0013712503 -0.10649215 -0.11997211 -0.13097501
0003c0 9f ca 6a 3d 6b cc 8c bd d7 db e6 bc b9 0a a5 bd
       0.05732214 -0.06874927 -0.028181 -0.08058686
0003d0 c7 07 d1 bc 0b d8 c9 bd 84 62 bb bd 1b 41 3e 3d
       -0.025516404 -0.0985566 -0.0914965 0.04644881
0003e0 5a 75 2a bd 41 0a b1 3d 5b 00 38 bd d8 5e d2 bd
       -0.04161582 0.08644534 -0.044922214 -0.10271996
0003f0 10 65 ca bc bc 03 8b bd 68 79 2f bd 62 81 08 be
       -0.024706393 -0.06787822 -0.04284039 -0.13330606

fc1.bias f4 [64]
000000 31 46 ae be bd 35 9f bd 8f fd 90 3e 41 45 22 bc
       -0.34037927 -0.07773922 0.2831845 -0.009904207
000010 1c 70 23 bd 36 f8 d5 3e dd d1 16 be 3d cc 75 3e
       -0.039901838 0.41790932 -0.14728494 0.24003692
000020 1e 65 be bd ac 8d 37 bd 26 30 36 be c7 cf df bd
       -0.0929663 -0.044812843 -0.17791805 -0.10928302
000030 68 a9 01 be 52 e5 0d bb ab 10 7d bd a8 e7 d4 3d
       -0.1266228 -0.0021651578 -0.061783474 0.103957474
000040 22 bd ae bd ac 76 09 be 5f ad 43 3e ca a3 07 3e
       -0.08532168 -0.13424176 0.19109105 0.13246074
000050 a5 14 6b bd cf f3 dd 3d a2 a9 34 ba 5e 43 70 3d
       -0.057392735 0.108375184 -0.00068917323 0.058657996
000060 75 9e af ba 9d 49 66 3d 31 00 80 bd 43 fa 20 bd
       -0.0013398664 0.056222547 -0.062500365 -0.03930117
000070 62 03 2a bb 38 29 2e 3e 2d d8 5c bc 32 b2 39 3e
       -0.0025941958 0.17007911 -0.013479275 0.18134382
000080 fa 79 bc bd af bb a2 3d 45 63 8a bd 79 b5 ce bd
       -0.09202953 0.07945954 -0.067572154 -0.10093207
000090 5f 0c 8d bd 2f f2 02 be e1 89 72 3e 8f 13 aa bd
       -0.06887125 -0.12787698 0.23685409 -0.08304512
0000a0 28 d7 6f bd 21 f1 43 bd 35 b9 c6 bd 87 26 f5 3d
       -0.0585548 -0.04783738 -0.09703294 0.11970239
0000b0 28 95 91 bc 58 9d 69 3e 0b 14 ae 3e 96 9a 8f bd
       -0.017771319 0.22813928 0.33999667 -0.07011907
0000c0 23 16 34 be b6 3c cc bc 3e e8 98 bd b9 0e 82 bd
       -0.1758657 -0.024931293 -0.07466172 -0.063504644
0000d0 1d 86 b0 b9 1f 62 14 be 65 df 24 bd 3b e9 96 bd
       -0.00033669258 -0.14490555 -0.040252108 -0.07368704
0000e0 a3 6e 10 3e 13 59 1c bc 03 67 0d be 38 63 21 bd
       0.14104705 -0.009542721 -0.13808827 -0.039401263
0000f0 c4 eb 52 bd fe 51 83 bd 0c 76 34 be 3a 10 0b be
       -0.051494375 -0.06412123 -0.17623156 -0.13580409

fc2.weight f4 [128, 64]
000000 a3 4a 39 3c b0 e9 e1 bd be 53 b2 3d 53 cd d6 bd
       0.011309299 -0.110309005 0.08707379 -0.10488381
000010 b8 70 f8 bc 4e 77 58 bd dc 2e 82 bd 0b 07 34 3c
       -0.030327186 -0.052848153 -0.06356594 0.010988007
000020 5c 7c 67 3d 63 4f a7 bd 1e 18 24 bd 97 db 80 3d
       0.056515083 -0.08169439 -0.040062062 0.062918834
000030 af dd 6e bc 8e 8d dd 3c 7d 6f 80 3d 45 ef 3e bd
       -0.014579221 0.027045038 0.06271265 -0.046614904
000040 bd 93 b9 bd 6d 46 24 3d 5d 0c 7d bd 57 76 ba bd
       -0.09061382 0.040106226 -0.06177937 -0.09104603
000050 59 b8 7c bd 58 3d 40 bd 1c 1e 05 3e c3 61 ef 3c
       -0.061699245 -0.046933502 0.12999767 0.029221421
000060 31 7d 99 3d 6e 6c b5 3c 71 3b ab bd 44 bd b8 3d
       0.074945815 0.02214643 -0.08360947 0.090204746
000070 1b 80 d2 bc 57 b1 04 bd 69 54 c4 3d c9 0e 8a bd
       -0.025695851 -0.032395687 0.095864125 -0.06741101
000080 a0 c1 07 3d 49 be dc bd 06 2f c1 3c e7 d8 5b 3d
       0.03314364 -0.107784815 0.023581993 0.05367365
000090 16 9c c2 bd 57 ea 64 3d c7 52 a0 3c 7e 30 84 bd
       -0.09502427 0.055887546 0.019570721 -0.06454562
0000a0 71 a3 dd 3d a3 2e 42 3d b8 ee 26 3d e6 75 7f bd
       0.108221896 0.047407757 0.040755004 -0.062368296
0000b0 ba 5e 8c bd 43 4f 91 bd 7b 97 35 3b 45 de e8 3c
       -0.06854005 -0.07095196 0.0027708698 0.028426299
0000c0 9c 73 4e bd a2 ac e3 3d 34 88 8b 3c 4c 7c 43 bd
       -0.050403222 0.111169115 0.01703272 -0.04772596
0000d0 ea 7b 9c 3d 5f c8 61 bd 25 d4 1a 3c 65 1a d3 3d
       0.07640822 -0.05512273 0.009449993 0.10307769
0000e0 9a c3 d0 bd 83 a6 74 bd ae 07 ce bb c3 78 78 3c
       -0.10193558 -0.05972911 -0.0062875366 0.015165511
0000f0 ca 14 c7 bd 97 79 90 bd 6f 58 41 bc 44 87 a9 bc
       -0.09720762 -0.070544414 -0.011800869 -0.020694382
000100 65 75 3b 3d 24 9a b2 3c 03 69 58 be 23 8c 54 3c
       0.045766253 0.021802016 -0.21133809 0.012972864
000110 30 64 6b 3c d6 ec 85 be 6c 1b fe 3c 88 db eb bd
       0.014367148 -0.26157254 0.031018935 -0.11516482
000120 53 84 cc bd b9 10 85 bd 6a d6 34 3d cd d5 b4 bd
       -0.09986176 -0.0649733 0.044149794 -0.08829842
000130 c6 7a 96 3d aa f8 5b 3d 17 ee d9 3c f4 77 6b bd
       0.07347636 0.05370394 0.026602788 -0.057487443
000140 40 6b cd bc d6 9b f2 bd 1d 24 97 be 2e 39 e1 3d
       -0.025075555 -0.118461296 -0.2951974 0.10997234
000150 33 8f f1 bd 60 ec d1 bd 40 bb 2a bd 30 3d 9d 3c
       -0.11794891 -0.10250163 -0.04168248 0.019194216
000160 8d a8 11 3d 8b f9 5d bd af 26 49 bc 50 ab e4 bc
       0.035561133 -0.05419306 -0.012277289 -0.02791372
000170 77 5a e1 3d 5f 96 d5 3d fc 08 6b 3d d1 f8 96 3a
       0.11003583 0.10429072 0.057381615 0.0011518245
000180 5c ed cf 3d e3 41 c1 bd 3e 32 f3 3c 05 d5 9b bd
       0.101526946 -0.09436395 0.029687043 -0.076089896
000190 53 06 ca 3d 58 54 19 be f4 27 ff 3c 9e 7a d2 bd
       0.098644875 -0.14973581 0.03114698 -0.102772936
0001a0 08 2b 92 3d 9f 32 12 3d 51 ba c5 3d 5e 88 d9 bd
       0.07137114 0.035692807 0.09654678 -0.10621713
0001b0 90 c3 a4 3d c3 66 88 be 28 3e 8e be 1e 10 18 3d
       0.08045113 -0.266409 -0.27781796 0.037124746
0001c0 db 7b e2 3b 8b 36 cf bd 8b 14 c8 bd 94 ed 04 bd
       0.0069117374 -0.10117825 -0.09769543 -0.032453135
0001d0 07 e9 8f 3c fc f3 bd 3d 8d 3f cb 3d b8 fc c3 3b
       0.01756717 0.09275052 0.09924231 0.005981054
0001e0 6d 4f a3 bd c1 56 d8 bd 2e a6 e9 3d f3 6e 9f bd
       -0.07974134 -0.10563422 0.114086494 -0.07784834
0001f0 9c 68 eb bc e0 f2 e7 bd 04 45 c5 bd c6 f9 bc 3c
       -0.028736405 -0.113256216 -0.09632304 0.02306832
000200 18 d9 aa bc ec f7 29 3c b4 2b 3b be 3b e9 4d 3b
       -0.020855471 0.010374051 -0.1827839 0.0031419534
000210 68 e6 ca bc 16 7e 68 be c6 be 2a 3d e3 66 77 bd
       -0.02476807 -0.22704348 0.041685842 -0.060400855
000220 80 f4 ad 3d 33 72 e9 bd 41 f8 d7 bd cb f9 62 bc
       0.084939 -0.11398735 -0.105453975 -0.013853501
000230 77 c9 0f bc 5c 32 84 3d 7b 1b f7 3d 61 b7 e9 3c
       -0.00877606 0.06454918 0.12065788 0.028529825
000240 22 a7 d5 bd 95 24 03 bc 67 dd 42 bd 01 05 40 3c
       -0.10432269 -0.008004327 -0.047574427 0.011719943
000250 d8 b5 cc bd ba 95 a6 bc 5b 17 ff bd d6 4b 52 bd
       -0.099956214 -0.020335067 -0.124556266 -0.051341854
000260 c8 e5 b7 3d 8f 4a 61 bd ad b9 8a 3d 08 d0 d0 bd
       0.08979374 -0.055002745 0.06773696 -0.10195929
000270 ce e7 ed 3d ef d4 58 3d 95 30 b2 3d 32 8c 19 3d
       0.11616479 0.052937444 0.087006725 0.037487216
000280 fe 52 88 3c 30 08 7e bd b4 a7 bd bd 77 2d b8 bd
       0.016641136 -0.062019527 -0.092605025 -0.08993047
000290 bd 84 c2 3d 20 13 63 bd e8 37 53 bb d8 aa f0 bd
       0.09497974 -0.05543816 -0.0032229368 -0.11751336
0002a0 6c 41 e7 3c ae 15 2e bd 24 44 cd bd 5a 68 f6 3b
       0.028229438 -0.042501144 -0.100227624 0.007519764
0002b0 b4 d4 eb bd bb af 0f be bc 8c 63 be cd 83 9c 3d
       -0.11515179 -0.1403188 -0.22221655 0.076423265
0002c0 9a ee e6 bd ab a7 ab 3c 97 e8 a1 bb 28 8c cc bd
       -0.112759784 0.020953974 -0.004941057 -0.0998767
0002d0 ce 75 8c 3d 98 02 b2 3d 3f 29 a8 bd 37 55 39 3c
       0.06858407 0.08691901 -0.08210992 0.011311821
0002e0 42 85 c8 3c 82 49 cc 3d ce ef c8 3d b0 8e e5 bd
       0.024477605 0.09974958 0.09811364 -0.11208856
0002f0 b0 64 e2 bd b7 19 02 be ce d5 74 bd c7 02 f9 bc
       -0.11054361 -0.12705122 -0.059774213 -0.030396832
000300 8a 9d 90 bd 43 39 77 3d d3 bb 60 3d ee 85 c9 bd
       -0.07061298 0.060357343 0.054866623 -0.09839998
000310 94 1e c8 bd 2a a2 db 3d 41 f4 00 3e 3c 2a 28 3e
       -0.09771457 0.1072429 0.12593175 0.16422361
000320 9d f4 1d bd eb f6 1f bd 1e 22 e3 bd 53 fb 4a bd
       -0.03856336 -0.03905384 -0.11090492 -0.049556088
000330 94 1b 8e 3d ec fb 95 3d 8b 22 a7 3d 96 dd c9 3b
       0.06938854 0.07323441 0.081608854 0.0061604483
000340 27 e0 a3 bd 76 94 9b bd 9b d9 7a 3e ad 18 d9 bd
       -0.08001738 -0.07596676 0.24497072 -0.1060041
000350 a7 72 af 3c 8e ae e0 bc 1e 0d db 3d c0 00 73 3d
       0.021416975 -0.027426984 0.10695861 0.059326887
000360 6f 95 44 bd 70 f5 ea bd 8e 0a 21 3c 82 0e b3 bd
       -0.047994073 -0.11472595 0.009829177 -0.087430015
000370 d7 1a 9a bc 73 14 ec 3c ec 6c 61 3d 7b c2 1e bd
       -0.018811626 0.028818345 0.055035517 -0.03875969
000380 e1 c0 bc bd 2e 85 e5 bd 68 7f e2 bd b7 5d 9d 3c
       -0.09216476 -0.11207043 -0.11059457 0.019209726
000390 2f 7e c0 bd 7c e9 09 3d 2a d2 58 bd 1e 3e ad bd
       -0.093990676 0.033669934 -0.052934803 -0.084591135
0003a0 76 5a a4 3d 8d 69 68 3d b5 ca 98 3d 4c dc 0c 3e
       0.080250666 0.056741286 0.07460538 0.13755912
0003b0 d8 39 b9 bd 96 e8 47 3d ed 67 21 3d b1 19 46 3d
       -0.09044236 0.048805796 0.039405752 0.048364345
0003c0 37 d8 38 3d c7 5b c6 3d 45 83 b4 bd 56 4a 89 bd
       0.045128074 0.09685474 -0.088141 -0.067036316
0003d0 1f dc 04 3e 84 8a c9 bd 56 ac b9 bd 69 5b 30 3d
       0.12974595 -0.09840873 -0.090660736 0.043055926
0003e0 bc a6 d3 bd 00 cb 43 bd 92 e0 4e 3d 62 bc ce 3d
       -0.103345364 -0.047801018 0.050507136 0.10094525
0003f0 e9 11 a7 bc 81 a4 d7 bd 65 88 52 3d 5d bb f3 3d
       -0.020394282 -0.105294235 0.051399607 0.11900971

fc2.bias f4 [128]
000000 de 71 21 be e9 10 72 be 59 f3 88 3e 8c 9a 1e be
       -0.15766093 -0.23639263 0.2674816 -0.15488642
000010 4b fa aa bd 04 76 91 3e e5 a3 a7 3e fe 21 cc bb
       -0.08348521 0.2841035 0.3274223 -0.006229638
000020 35 29 4a 3e 74 3c ed bd 35 66 c4 3c 71 3a d8 bb
       0.19742282 -0.11583796 0.023974517 -0.0065987636
000030 78 03 b5 3e dc 5a 9e bb 84 50 b8 bd b1 f1 79 bd
       0.3535421 -0.0048326086 -0.08999732 -0.06102151
000040 ca 30 1b bd 63 17 e1 bd 7b 57 07 3d 88 8e 9a 3e
       -0.037888326 -0.10990789 0.033042412 0.30186868
000050 d3 10 17 be d0 06 d5 bb 01 f9 b7 3e a8 b8 cb bd
       -0.14752512 -0.0065010563 0.35932162 -0.0994733
000060 dd 37 fd bb 7d 9e 32 3e c6 d8 05 be c1 c4 f0 bd
       -0.0077276067 0.17443271 -0.13070974 -0.11756278
000070 b5 36 ac bb 97 8c 5c bd 2f 44 1f be 26 9e a6 bd
       -0.005255545 -0.053845014 -0.15553354 -0.08135633
000080 1d 07 bf bd 17 a6 59 bd 90 a0 75 bc 5b aa 0e 3e
       -0.093275286 -0.05313691 -0.014991894 0.13932173
000090 bb 55 07 bc 01 f3 5b 3e 7a 1b 49 be e0 d9 db 3c
       -0.008260186 0.21479417 -0.19639388 0.02683729
0000a0 ff 7b b6 bb 48 9b fa 3c 27 a0 63 bd 16 97 85 bd
       -0.0055689807 0.030591622 -0.055572655 -0.06522958
0000b0 12 42 ec 3e d0 c0 12 be fc 86 5b be be 0e 45 3e
       0.46144158 -0.14331365 -0.21438211 0.19243905
0000c0 d5 cf 97 bd 84 e2 e4 bd 53 e4 7c bd 68 36 b0 bc
       -0.07412688 -0.11176017 -0.061741184 -0.021510318
0000d0 ce 21 9f bd 96 77 88 be e6 89 33 bc f9 79 1c 3e
       -0.077701196 -0.26653737 -0.0109581705 0.15280904
0000e0 ba 35 aa 3e 7b 39 fd bb 0b 3e 28 be b5 4e b5 bd
       0.33244115 -0.0077277995 -0.16429918 -0.08852903
0000f0 48 8e 13 3f de 65 c0 3c 54 0a b5 3e 38 05 94 3c
       0.5763898 0.023486074 0.35359442 0.018068895
000100 4b 40 f6 bb ef d3 b2 bd b8 6a 5a bd 01 5e d7 bd
       -0.0075149885 -0.087318294 -0.05332443 -0.10515977
000110 5f 7b 8b 3e 55 c0 9b bd 30 b7 a1 bd 60 d1 44 be
       0.27242562 -0.07605044 -0.07896268 -0.19220495
000120 75 7b 55 bb 55 7f e5 bd eb 01 8c bd f8 4b a9 bd
       -0.0032574807 -0.11205927 -0.06836303 -0.08266443
000130 88 59 21 3d e6 99 63 3e d9 72 74 3e 62 bc 96 3e
       0.039392024 0.22226676 0.23871936 0.294406
000140 4b 3f d7 bb f8 cf 0e be cf 64 84 bd d6 b6 55 bd
       -0.0065688244 -0.13946521 -0.0646454 -0.05217632
000150 b8 d1 39 bc 0b a9 bc bd c7 d7 07 3e d6 5a 9d bd
       -0.011341505 -0.0921193 0.13265906 -0.07683341
000160 9e 4d cb 3e cb 5b ac 3e 7c 5e cc bc ad 91 c4 3c
       0.39707655 0.33663782 -0.024947397 0.023995245
000170 e3 61 61 bd 21 34 19 be 19 34 f9 bd df 26 97 3c
       -0.055024993 -0.14961292 -0.1216814 0.018451152
000180 d8 d2 c9 3c 36 b2 1e bd e2 73 a2 3b 09 81 ca bd
       0.024636671 -0.038744174 0.004957662 -0.09887893
000190 55 83 83 3e 3d c8 ad bb 40 d0 26 be 29 e3 ce bd
       0.25686136 -0.0053034113 -0.16290379 -0.10101921
0001a0 5d 3a 09 bc 62 3e ba 3c b1 17 38 be 56 26 11 bd
       -0.008375731 0.022734825 -0.17977788 -0.03543695
0001b0 da 7d 06 ba b7 11 4d 3e f6 3a b9 bb 97 1e 42 be
       -0.00051304477 0.20026289 -0.0056527806 -0.18956982
0001c0 4f 5d 5d 3e 15 11 3e be 89 3a 24 bd e1 11 44 be
       0.21617626 -0.18561204 -0.040094886 -0.19147445
0001d0 ce bd 78 3c b2 b6 1c 3d 29 fb c7 bd e9 b5 9f 3c
       0.015181972 0.03826017 -0.09764702 0.019495921
0001e0 d7 a3 10 3d 22 53 f6 3e b0 24 4d be 9d 9e b2 be
       0.0353125 0.481103 -0.20033526 -0.34886637
0001f0 c4 14 05 3d 3f 87 eb bd 8d 47 9b bd 32 fe 99 3e
       0.032490507 -0.115004055 -0.075820066 0.30076748

out.weight f4 [1, 128]
000000 d7 9e 36 b9 1f 91 99 bc 8a 62 9b bb 35 13 b1 3c
       -0.00017416045 -0.018745957 -0.0047419714 0.021615604
000010 aa bc 64 bd 92 ae 98 bd 86 0b a7 bd e3 23 0a 3d
       -0.055843987 -0.07455172 -0.08156495 0.03372563
000020 e7 5e 06 bc 34 36 38 bd c7 b7 89 3d f4 34 f3 3c
       -0.008201337 -0.044973567 0.06724506 0.029688336
000030 ab 6e 9c bd eb f7 35 3d 37 a7 21 bc 2b fb 8f 3b
       -0.07638296 0.044425886 -0.009866527 0.004393955
000040 4a 9a 62 3d 95 b8 33 3d b6 14 33 3c f4 5c 25 bd
       0.055322923 0.043877203 0.010930231 -0.04037185
000050 3f a2 10 3d 4c ac 1d 3d 58 40 a7 bc 9e 1d 6b bd
       0.03531098 0.038494393 -0.020416424 -0.057401292
000060 60 b9 26 3d 6b 0c 21 bd 1c c5 35 bd bd 2c 81 bd
       0.04070413 -0.039318483 -0.04437743 -0.06307361
000070 4d a3 a0 3c 50 02 d7 3c 6e bf 0b bd cd df a1 bd
       0.019609118 0.02624622 -0.03411811 -0.07904015
000080 35 cb 74 3d 08 54 38 3a fd 7d 82 3d 1a 66 35 bb
       0.059764106 0.00070315646 0.063716866 -0.0027679265
000090 40 94 85 3d 5e 6c 0c bd 1a 1c 1e bd 19 1e 5f 3d
       0.06522417 -0.034283035 -0.03860102 0.054472063
0000a0 78 a5 8f 3c 09 2a 1f 3d 4f 06 c6 3a 0d 72 7f bd
       0.017534956 0.038858447 0.0015108081 -0.062364627
0000b0 c6 8c 82 bd af 32 00 bd b0 b8 e6 bc f7 f6 c1 bc
       -0.06374507 -0.031298336 -0.028164238 -0.023677332
0000c0 53 1a 5b 3d 21 34 49 bd 66 64 bb 3a 5f be 12 3d
       0.0534919 -0.04912198 0.0014296889 0.035826083
0000d0 a1 82 bd 3a a6 f5 6b bc 0b a7 a8 3c dd 28 38 bd
       0.0014458486 -0.014401829 0.020587465 -0.044960845
0000e0 66 84 c7 bd d7 ee 0a 3c ca 7d 42 bd 98 67 94 bd
       -0.0974205 0.008479795 -0.047483243 -0.072463214
0000f0 1d 2e a4 bd bc 97 61 3d 9f cc 7f bd 7c 61 84 3d
       -0.08016608 0.055076346 -0.062451 0.06463906
000100 a8 8c 09 3d d0 95 9b b9 1a 10 f8 bc 4d f5 94 bd
       0.033581406 -0.00029675523 -0.030281115 -0.0727335
000110 e6 e7 96 bd 83 2e 05 3d dc 02 5f bd 46 3d b5 bc
       -0.0736845 0.03251506 -0.054446086 -0.022123944
000120 62 45 73 3b b5 62 49 bb b3 e4 6d 38 b7 7a 51 bd
       0.0037120213 -0.0030729 5.6718196e-05 -0.05114242
000130 ad 6a 5e 3d 94 6b 84 bd 21 f9 2a bd 4a 46 84 bd
       0.054300953 -0.064658314 -0.041741494 -0.06458719
000140 2f 7f 2b 3d ba 44 0e bd 7f 3b 0c bb 5f e2 c7 3c
       0.04186934 -0.03473351 -0.0021397767 0.024399934
000150 6c a7 f1 3b 9b 5e 3a 3d d7 a5 02 bc a2 0d 6a 3a
       0.0073746946 0.04550038 -0.00797411 0.0008928423
000160 ca 97 7b bd a5 7c b2 bd 4f 5d 11 3c 5e e2 88 3b
       -0.061424054 -0.0871518 0.008872344 0.0041773757
000170 98 63 41 3d bf 09 9b bd 2f 79 5d 3b 96 63 52 3c
       0.04721412 -0.07570218 0.0033794155 0.012841126
000180 47 a3 3e 3d 19 ce b2 3c f9 2e 9b ba 57 b8 5a bd
       0.046542432 0.02182679 -0.001183956 -0.053398456
000190 80 7a 02 bd 76 c8 71 3d 11 7d 8c bd ad 14 a8 bc
       -0.031855106 0.059029065 -0.06859792 -0.020517671
0001a0 69 8e 7d 3d a6 e7 b3 3c ed 5f b1 bc 32 e0 a6 3a
       0.06190339 0.021961045 -0.021652186 0.001273161
0001b0 63 67 2b ba 77 44 7e bc 51 3a 49 3d 1b 7f ac ba
       -0.0006538538 -0.015519253 0.04912788 -0.0013160439
0001c0 59 86 13 bd d0 7e 3e bc b7 7f 42 3b ee 04 9d bc
       -0.036016796 -0.011626914 0.0029678175 -0.01916739
0001d0 17 d4 30 3d b9 36 10 3d c4 af 21 3d cc 18 ff 3c
       0.043171015 0.035208438 0.039474264 0.031139754
0001e0 0b 0f 82 3d e9 ed c9 bd ff dd 3b bc dc 5a 9d bc
       0.063505255 -0.09859831 -0.011466502 -0.019208364
0001f0 93 5a 59 3d 41 5d 20 bb 4b ca 30 39 95 1b 20 bc
       0.053064894 -0.0024469646 0.00016860028 -0.009772201
