experiments/2022-6-29_linear/save/linear_bin_class40000.pth (torch, 49299 bytes, 5 tensors)

fc1.weight f4 [64, 51]
0.03246657 0.07507854 -0.032867778 0.053821433 -0.07317967 0.028193982 -0.14223835 0.03991554
0.12340531 -0.17911823 0.08125095 0.02615758 0.02968737 -0.02368239 0.06749254 -0.096026376
0.06514039 0.02061899 -0.14134192 -0.0073048747 -0.06459302 -0.09337119 -0.09978438 0.09281248
-0.18574643 -0.107909195 -0.039589427 -0.16064668 -0.030015066 -0.1383753 0.051713627 -0.16376625
0.108063 -0.052856505 -0.09407447 0.086463824 -0.05407608 0.06441836 0.015233567 -0.118941195
-0.015416417 -0.038034793 -0.014510878 0.07278762 0.0808619 -0.13598718 0.024014138 0.024986556
-0.0032563794 -0.1434085 -0.1386925 -0.054101296 -0.10740469 0.11489843 0.040332455 0.0580015
0.044285424 -0.0024359236 0.10958708 -0.099491805 0.0088166855 -0.095574744 0.043177918 -0.048223168
0.04290686 -0.029173644 0.11613809 -0.08299487 -0.083512425 -0.08351747 0.12594719 0.04666449
0.13474205 -0.1155618 -0.13889045 -0.109552845 -0.094195314 0.056716967 0.050140653 0.11635269
-0.07231402 -0.095458746 0.074295804 -0.056599952 0.08498634 -0.033228736 0.08010245 -0.10879729
-0.070665106 0.042691242 0.029602978 -0.035701368 0.083466426 0.095192336 -0.10154459 -0.0747565
0.12821832 -0.047250003 -0.049642228 -0.13549036 -0.080189876 0.03497951 -0.018482743 -0.101644374
0.003284594 -0.095650546 -0.1187993 -0.0771082 -0.12255421 -0.089161165 0.13997325 0.026447786
0.04315099 -0.13060193 -0.09196673 -0.04660914 0.021896336 -0.123213634 -0.060334295 -0.08383037
0.0003880538 -0.052104875 -0.009703348 -0.094887145 -0.09611455 -0.0816926 -0.04793123 -0.110521436
0.117409274 -0.027790524 0.12047965 0.04363022 -0.118575305 0.096904315 -0.03852798 -0.053676385
-0.116233125 -0.13921034 0.040063504 -0.030588262 0.054516144 -0.11491588 0.10396088 -0.10278808
-0.024179107 0.029247608 0.07228971 0.113046065 0.12755981 -0.111031316 0.035240468 -0.06022968
-0.015344943 -0.06956806 0.1457797 -0.10274344 0.11104737 0.068461455 0.045535088 -0.042628538
0.14170662 0.030788999 0.05520607 -0.1058646 0.058800343 0.01339678 -0.044723693 0.12028106
0.068525866 -0.059698477 -0.07084956 0.028387226 0.096731715 -0.03576061 -0.04172512 -0.031429872
-0.10457903 0.082305826 0.12620795 -0.13182265 0.07023247 0.089205414 0.025436081 -0.01826895
0.09164827 0.07360761 0.08794982 -0.0059964866 -0.037058767 0.049310327 -0.0057636076 -0.041702785
0.12336118 0.13983794 -0.013847115 0.0009934907 0.020639556 -0.008329966 0.066448316 0.059209537
-0.12716243 -0.018002726 0.13824779 0.054573864 -0.0069646537 -0.0844237 -0.08566985 -0.12543246
-0.04564387 0.047288045 0.08928489 0.064650565 -0.12377693 -0.084207594 -0.022098752 0.13545604
0.020256102 -0.036263157 0.057931725 -0.053334087 -0.09063392 0.102204666 -0.063670985 -0.028070962
-0.13930047 0.09371664 0.106090076 0.051032957 -0.09763792 -0.13819924 -0.11372781 0.104418926
0.06722826 0.117834195 0.07335646 0.035439994 -0.0013712503 -0.10649215 -0.11997211 -0.13097501
0.05732214 -0.06874927 -0.028181 -0.08058686 -0.025516404 -0.0985566 -0.0914965 0.04644881
-0.04161582 0.08644534 -0.044922214 -0.10271996 -0.024706393 -0.06787822 -0.04284039 -0.13330606
00000000: abfb 043d c7c2 993d 5da0 06bd dd73 5c3d
00000010: 39df 95bd 11f7 e63c eea6 11be 7a7e 233d
00000020: ecbb fc3d c56a 37be e666 a63d 6c48 d63c
00000030: ed32 f33c 9201 c2bc 8739 8a3d 7aa9 c4bd
00000040: 5368 853d 28e9 a83c f0bb 10be bb5d efbb
00000050: 5849 84bd 6539 bfbd c15b ccbd 7814 be3d
00000060: 5034 3ebe 7fff dcbd 8628 22bd 9080 24be
00000070: 28e2 f5bc 41b2 0dbe abd1 533d 57b2 27be
00000080: 2250 dd3d 1080 58bd 1eaa c0bd f213 b13d
00000090: e17e 5dbd c6ed 833d 3696 793c 7197 f3bd
000000a0: 2495 7cbc 5fca 1bbd 09bf 6dbc ad11 953d
000000b0: ec9a a53d 3940 0bbe 4cb9 c43c 9bb0 cc3c
000000c0: fb68 55bb aed9 12be 6805 0ebe 5299 5dbd
000000d0: fdf6 dbbd de4f eb3d a533 253d fb92 6d3d
000000e0: a264 353d 04a4 1fbb 316f e03d 5cc2 cbbd
000000f0: dc73 103c b1bc c3bd 54db 303d a885 45bd
00000100: 1bbf 2f3d 91fd eebc cfd9 ed3d 37f9 a9bd
00000110: 9008 abbd 350b abbd 4df8 003e 4423 3f3d
00000120: d2f9 093e aaab ecbd 4c39 0ebe 3e5d e0bd
00000130: 79e9 c0bd 0d50 683d 4960 4d3d 524a ee3d
00000140: 5f19 94bd e07f c3bd 6628 983d 5ad5 67bd
00000150: 510d ae3d db1a 08bd c10c a43d 1dd1 debd
00000160: deb8 90bd 03dd 2e3d f281 f23c 993b 12bd
00000170: 72f0 aa3d 33f4 c23d 9cf6 cfbd f019 99bd
00000180: aa4b 033e 3889 41bd a655 4bbd fcbd 0abe
00000190: 973a a4bd ad46 0f3d 1f69 97bc ed2a d0bd
000001a0: 5842 573b 6fe4 c3bd 0c4d f3bd e7ea 9dbd
000001b0: b4fd fabd 219a b6bd 2655 0f3e 07a9 d83c
000001c0: 18bf 303d 83bc 05be 0e59 bcbd 3ae9 3ebd
000001d0: f25f b33c 6e57 fcbd 1821 77bd 42af abbd
000001e0: b373 cb39 ec6b 55bd cbfa 1ebc 3154 c2bd
000001f0: b5d7 c4bd 734e a7bd 8a53 44bd 1059 e2bd
00000200: 4674 f03d f4a8 e3bc 09be f63d 9ab5 323d
00000210: 9cd7 f2bd c575 c63d 84cf 1dbd c5db 5bbd
00000220: a20b eebd 288d 0ebe a119 243d 3c94 fabc
00000230: 524c 5f3d 0459 ebbd 71e9 d43d 8f82 d2bd
00000240: 4313 c6bc ae98 ef3c a10c 943d b284 e73d
00000250: 0a9f 023e 6364 e3bd 4f58 103d 66b3 76bd
00000260: 5b69 7bbc b379 8ebd 4647 153e 276b d2bd
00000270: ce6c e33d 8535 8c3d 0083 3a3d 439b 2ebd
00000280: 8a1b 113e 3639 fc3c c31f 623d 8acf d8bd
00000290: a1d8 703d 2b7e 5b3c 3130 37bd eb55 f63d
000002a0: 4a57 8c3d 6486 74bd 9319 91bd 548c e83c
000002b0: 471b c63d b879 12bd f6e7 2abd 9cbc 00bd
000002c0: 882d d6bd f58f a83d a83c 013e 84fc 06be
000002d0: 0bd6 8f3d 54b1 b63d 545f d03c c4a8 95bc
000002e0: 17b2 bb3d 96bf 963d 091f b43d 2d7e c4bb
000002f0: efca 17bd a0f9 493d a5dc bcbb 8ad0 2abd
00000300: c9a4 fc3d ad31 0f3e 03df 62bc 0438 823a
00000310: 4914 a93c 697a 08bc 0e16 883d b385 723d
00000320: de36 02be 747a 93bc d490 0d3e d888 5f3d
00000330: c037 e4bb 55e6 acbd ad73 afbd 5e71 00be
00000340: 11f5 3abd 1cb1 413d ffda b63d 8467 843d
00000350: c27e fdbd 0875 acbd 7108 b5bc fdb4 0a3e
00000360: 20f0 a53c ad88 14bd d149 6d3d d874 5abd
00000370: 479e b9bd ae50 d13d ef65 82bd 13f5 e5bc
00000380: c8a4 0ebe 82ee bf3d c145 d93d ef07 513d
00000390: 64f6 c7bd 1a84 0dbe 20ea e8bd 97d9 d53d
000003a0: f8ae 893d 0e53 f13d e93b 963d 8729 113d
000003b0: 86bb b3ba 8e18 dabd f0b3 f5bd 501e 06be
000003c0: 9fca 6a3d 6bcc 8cbd d7db e6bc b90a a5bd
000003d0: c707 d1bc 0bd8 c9bd 8462 bbbd 1b41 3e3d
000003e0: 5a75 2abd 410a b13d 5b00 38bd d85e d2bd
000003f0: 1065 cabc bc03 8bbd 6879 2fbd 6281 08be

fc1.bias f4 [64]
-0.07926885 -0.084993996 0.067006394 0.08285861 -0.039901838 0.14226025 -0.12087962 0.06042814
-0.07699517 -0.031839095 -0.13483517 -0.1045319 -0.11880666 0.12274011 -0.052679505 0.10504225
-0.075846605 -0.03481342 0.051066402 0.063125424 -0.037681684 0.074383736 0.09931225 0.2240051
0.1372572 0.10217718 -0.04223978 -0.03930117 0.010136383 0.11730583 -0.0075033517 0.09882565
-0.08424353 0.2079807 -0.017181983 -0.09636334 -0.06801071 -0.10691823 0.025639612 -0.08304512
-0.040104963 -0.008802147 -0.08538851 0.057396177 -0.017771319 0.027281664 0.069804296 -0.084534936
0.07701527 -0.002979612 -0.07990671 -0.063504644 0.0643427 0.16536789 -0.0045067347 -0.06971232
0.0791983 0.08679941 -0.13612528 -0.024752224 -0.03796118 -0.05974092 -0.07762874 -0.11361155
00000000: b557 a2bd 5511 aebd a63a 893d c6b1 a93d
00000010: 1c70 23bd acac 113e bc8f f7bd 7f83 773d
00000020: a5af 9dbd b669 02bd 3b12 0abe d214 d6bd
00000030: e850 f3bd 2b5f fb3d 77c6 57bd 6420 d73d
00000040: 7755 9bbd 8498 0ebd 012b 513d e747 813d
00000050: 1c58 1abd 8056 983d 3964 cb3d 9861 653e
00000060: 278d 0c3e 4542 d13d 9f03 2dbd 43fa 20bd
00000070: 1213 263c 0a3e f03d adde f5bb 1a65 ca3d
00000080: df87 acbd e5f8 543e 3bc1 8cbc 255a c5bd
00000090: 3349 8bbd f2f7 dabd 2a0a d23c 8f13 aabd
000000a0: 1a45 24bd e136 10bc 2ce0 aebd 4118 6b3d
000000b0: 2895 91bc cc7d df3c 8ef5 8e3d a720 adbd
000000c0: 2fba 9d3d 9845 43bb 21a6 a3bd b90e 82bd
000000d0: 1bc6 833d 3356 293e 3bad 93bb 55c5 8ebd
000000e0: b832 a23d e4c3 b13d 6d64 0bbe 2dc5 cabc
000000f0: 2f7d 1bbd e5b2 74bd d1fb 9ebd 2cad e8bd

fc2.weight f4 [128, 64]
0.12197238 -0.114176825 0.116126746 -0.09886164 -0.030327186 -0.051382646 -0.06690624 0.044368513
0.07159299 -0.08252227 -0.058393493 0.063803375 -0.015109509 0.029130239 0.06480293 -0.04680456
-0.07023175 0.04489407 -0.04582102 -0.08333008 -0.06356784 -0.058226645 0.12409093 0.02161846
0.05302212 0.01619853 -0.08524884 0.090204746 -0.01947352 -0.033356927 0.101856 -0.063926205
0.025382295 -0.10801719 0.06344745 0.0496514 -0.10347194 0.06974442 0.013719229 -0.06454562
0.106267914 0.052611016 0.04353795 -0.04647031 -0.06854005 -0.0673081 0.046844512 0.03364098
-0.07562721 0.11326268 0.07238582 -0.04772596 0.064604215 -0.055528384 0.03920003 0.104041606
-0.1108896 -0.0630848 -0.0070634023 0.018405473 -0.102901004 -0.08227319 -0.014132756 -0.018113794
0.03232944 0.01588349 0.025628738 0.011408582 0.014367148 -0.0072473544 0.04489033 0.085290626
-0.059085447 -0.06318015 0.055537116 -0.09039171 0.08123225 0.06439272 0.020870542 -0.05151464
0.007058089 -0.09452869 -0.112463884 0.117699444 -0.10932889 -0.10373977 -0.046736524 0.017782014
0.03114234 -0.059747092 -0.006647184 -0.02791372 0.10458511 0.1128341 0.051428456 -7.795778e-05
0.093741685 -0.09300325 0.055484813 -0.07265723 0.10134277 -0.11041108 0.046434276 -0.102772936
0.07481062 0.028427945 0.10960087 -0.094284564 0.08045113 -0.08342673 -0.06749572 0.048057366
-0.017302442 -0.095515825 -0.10374408 -0.032453135 0.034600265 0.12218118 0.09204154 0.0020485818
-0.07583232 -0.1081449 0.11167111 -0.06878778 -0.021582766 -0.1005346 -0.075707585 0.024606794
-0.028549103 0.014314234 6.0737897e-05 0.009061952 -0.02476807 -0.0023016543 0.054333493 0.09238426
0.10739506 -0.101311706 -0.10545133 -0.01868175 -0.009535819 0.07331472 0.118894964 0.03499582
-0.0876623 -0.01182988 0.08151687 0.047892865 -0.0869112 0.008834401 -0.11898266 -0.042781483
0.09054296 -0.051346134 0.07893389 -0.10195929 0.11112454 0.06315912 0.08102921 0.036093995
0.008855835 -0.05593714 -0.06816001 -0.08583993 0.104836784 -0.043358058 0.003581294 -0.11751336
0.03422398 -0.040115405 -0.098947585 0.016082652 -0.11515179 -0.011606416 -0.1003637 0.07913226
-0.09659872 0.021436058 0.062676676 -0.0998767 0.08189338 0.10853896 -0.0765692 0.010467112
0.039770503 0.10741081 0.09765518 -0.10446352 -0.101688124 -0.110419534 -0.051007725 -0.025186578
-0.053680602 0.082365334 -0.08625173 -0.10661346 -0.09771457 -0.074045435 0.12243308 0.015674105
-0.02824764 -0.039754152 -0.096208125 -0.04241015 0.065853044 0.07296686 0.08511288 0.0032560665
-0.07257289 -0.0811295 0.12141243 -0.11302824 0.023737267 -0.011962271 0.11262081 0.054375537
-0.03545978 -0.10853678 0.0058659473 -0.087430015 -0.013246077 0.02366278 0.06081781 -0.03584987
-0.084379196 -0.11799454 -0.12286422 0.015679106 -0.08377486 0.0044698115 -0.05927498 -0.084591135
0.07976486 0.060960587 0.08280154 0.119843036 -0.09044236 -0.06661359 -0.09428476 0.08277766
0.06729113 0.09379815 -0.09133263 -0.067036316 0.12175817 -0.12074128 -0.08353606 0.04601884
-0.11195715 -0.043758556 0.05314128 0.101627305 -0.015310588 -0.111165315 0.0531584 0.124462284
00000000: a8cc f93d 8ad5 e9bd dcd3 ed3d f977 cabd
00000010: b870 f8bc 9c76 52bd 2406 89bd c2bb 353d
00000020: 589f 923d 7001 a9bd 042e 6fbd 58ab 823d
00000030: e08d 77bc 8aa2 ee3c 66b7 843d 23b6 3fbd
00000040: aad5 8fbd d8e2 373d d2ae 3bbd f6a8 aabd
00000050: db2f 82bd 107f 6ebd 6323 fe3d 3219 b13c
00000060: b92d 593d c8b2 843c f296 aebd 44bd b83d
00000070: ee86 9fbc 46a1 08bd e199 d03d beeb 82bd
00000080: 88ee cf3c 1e38 ddbd bdf0 813d 445f 4b3d
00000090: 19e9 d3bd 2ad6 8e3d 9ec6 603c 7e30 84bd
000000a0: fea2 d93d a67e 573d d954 323d a757 3ebd
000000b0: ba5e 8cbd d4d8 89bd 08e0 3f3d 20cb 093d
000000c0: 70e2 9abd 44f6 e73d 043f 943d 4c7c 43bd
000000d0: 374f 843d bb71 63bd 3690 203d c413 d53d
000000e0: 161a e3bd 9b32 81bd 1d74 e7bb 13c7 963c
000000f0: c3bd d2bd d97e a8bd 138d 67bc 6163 94bc
00000100: e06b 043d 181e 823c 5cf3 d13c 10eb 3a3c
00000110: 3064 6b3c 377b edbb ecde 373d daac ae3d
00000120: 9503 72bd 9864 81bd e37a 633d 4a1f b9bd
00000130: 185d a63d 55e0 833d b3f8 aa3c 0401 53bd
00000140: 8b47 e73b 4298 c1bd 7753 e6bd 680c f13d
00000150: d3e7 dfbd 8475 d4bd cc6e 3fbd 96ab 913c
00000160: 381e ff3c 5eb9 74bd 9fd0 d9bb 50ab e4bc
00000170: b830 d63d 9115 e73d a5a6 523d 447d a3b8
00000180: a4fb bf3d 7d78 bebd 0b44 633d 50cd 94bd
00000190: cc8c cf3d 341f e2bd de31 3e3d 9e7a d2bd
000001a0: 4f36 993d b9e1 e83c 6c76 e03d 4418 c1bd
000001b0: 90c3 a43d a2db aabd 323b 8abd cdd7 443d
000001c0: dabd 8dbc cd9d c3bd c777 d4bd 94ed 04bd
000001d0: 02b9 0d3d 203a fa3d 4680 bc3d 8041 063b
000001e0: fa4d 9bbd 137b ddbd d3b3 e43d 9ce0 8cbd
000001f0: 57ce b0bc 16e5 cdbd 940c 9bbd 3094 c93c
00000200: cfdf e9bc 4086 6a3c d2c0 7e38 9578 143c
00000210: 68e6 cabc 5ad7 16bb cc8c 5e3d f533 bd3d
00000220: f1f1 db3d 837c cfbd def6 d7bd 780a 99bc
00000230: 203c 1cbc 0726 963d 347f f33d c757 0f3d
00000240: 4b88 b3bd 1dd2 41bc 51f2 a63d 4f2b 443d
00000250: 80fe b1bd 2abe 103c 2ead f3bd a33b 2fbd
00000260: 966e b93d 5350 52bd 17a8 a13d 08d0 d0bd
00000270: 4395 e33d 9259 813d a4f2 a53d 4cd7 133d
00000280: 1018 113c 581e 65bd 7a97 8bbd d8cc afbd
00000290: abb4 d63d 3898 31bd 25b4 6a3b d8aa f0bd
000002a0: 722e 0c3d 0d50 24bd 08a5 cabd c4bf 833c
000002b0: b4d4 ebbd d628 3ebc 7c8b cdbd 1810 a23d
000002c0: 8dd5 c5bd ac9a af3c a15c 803d 288c ccbd
000002d0: b7b7 a73d ad49 de3d 50d0 9cbd 407e 2b3c
000002e0: 65e6 223d 33fa db3d 70ff c73d f8f0 d5bd
000002f0: dd41 d0bd a323 e2bd 7aed 50bd 1554 cebc
00000300: 31e0 5bbd 28af a83d bfa4 b0bd 2858 dabd
00000310: 941e c8bd 22a5 97bd 32be fa3d fb66 803c
00000320: 9867 e7bc 40d5 22bd c408 c5bd 44b6 2dbd
00000330: f6dd 863d a66f 953d a94f ae3d bb63 553b
00000340: 18a1 94bd 3927 a6bd 15a7 f83d 5a7b e7bd
00000350: a874 c23c 67fd 43bc bda5 e63d e2b8 5e3d
00000360: 463e 11bd 8848 debd 2237 c03b 820e b3bd
00000370: 1306 59bc 72d8 c13c 191c 793d 50d7 12bd
00000380: 00cf acbd 1fa7 f1bd 3ca0 fbbd 7871 803c
00000390: 2792 abbd 7f77 923b 52ca 72bd 1e3e adbd
000003a0: c25b a33d cfb1 793d db93 a93d 4470 f53d
000003b0: d839 b9bd b56c 88bd 5e18 c1bd 5587 a93d
000003c0: efcf 893d 3f19 c03d 9a0c bbbd 564a 89bd
000003d0: 595c f93d 3447 f7bd f414 abbd 407e 3c3d
000003e0: ca49 e5bd 2c3c 33bd acaa 593d fa21 d03d
000003f0: 43d9 7abc a4aa e3bd 9fbc 593d 15e6 fe3d

fc2.bias f4 [128]
-0.10006555 -0.08115474 0.06000593 -0.12351147 0.12784742 0.07179032 0.07517067 0.16369385
0.12113876 -0.05615728 0.09055429 0.05543933 0.06647138 -0.032238156 -0.069824666 -0.07138166
0.012451636 -0.007765946 -0.001859039 0.114813335 -0.102653615 0.022563303 0.00956984 0.04295329
0.079227455 0.1505005 0.0067042103 0.034549385 -0.07190557 -0.06542361 -0.09813624 0.16325094
-0.024995543 -0.07193441 -0.028131317 -0.0038444113 0.10817314 0.13830073 -0.07681734 -0.0074033514
0.11122679 0.049235184 0.05967032 -0.03670462 0.021005094 0.008600118 0.022775423 0.086422026
-0.047613833 0.04633324 0.11058898 0.09187629 -0.120475784 -0.0039209924 0.075017676 0.07293067
0.13743973 -0.068390496 -0.094045326 0.048676733 0.09964556 0.14350039 0.07425212 0.056105748
-0.080565125 0.077543765 -0.010834898 0.055277564 0.056979727 -0.09906569 0.057727013 -0.032946058
0.044093378 -0.1086587 -0.07112955 -0.08831402 0.07932771 0.17686391 0.12450675 0.13849682
0.041189063 0.054209486 0.031152034 0.02378859 0.017032782 -0.099125266 0.09330043 -0.08608643
0.15023309 0.12644623 0.021466129 0.16291896 0.015705222 -0.018109936 -0.06158132 -0.066908285
-0.06410515 0.097586 0.00995847 0.011079586 0.03938403 0.12253172 0.04020972 -0.05867706
-0.09598386 0.09772394 -0.11172842 0.04805337 0.09417747 0.07001221 -0.0044510886 -0.02183675
0.12738292 -0.06464442 0.029573703 -0.037365444 0.07163428 -0.031823613 -0.08641138 -0.047196414
0.105667286 0.04675249 -0.091297485 -0.08323302 -0.018960446 -0.015242712 -0.03776824 0.13627797
00000000: 2bef ccbd 7534 a6bd c7c8 753d 95f3 fcbd
00000010: 6fea 023e ce06 933d 15f3 993d 5c9f 273e
00000020: 9917 f83d 2d05 66bd 8774 b93d 5a14 633d
00000030: 2622 883d 280c 04bd 3c00 8fbd 8c30 92bd
00000040: f201 4c3c 7a79 febb ffaa f3ba 4123 eb3d
00000050: 0f3c d2bd add6 b83c d1ca 1c3c caef 2f3d
00000060: 0142 a23d ce1c 1a3e feae db3b a883 0d3d
00000070: 3a43 93bd d0fc 85bd a7fb c8bd 412b 273e
00000080: 74c3 ccbc 5952 93bd a673 e6bc 85f2 7bbb
00000090: e189 dd3d b59e 0d3e 6952 9dbd d097 f2bb
000000a0: dfca e33d d5aa 493d de68 743d 9557 16bd
000000b0: e012 ac3c 82e7 0c3c 8693 ba3c 08fe b03d
000000c0: b906 43bd ecc7 3d3d 7a7c e23d a329 bc3d
000000d0: 02bc f6bd ab7b 80bb dea2 993d ad5c 953d
000000e0: 00bd 0c3e 5110 8cbd d69a c0bd 4161 473d
000000f0: f912 cc3d c4f1 123e 7f11 983d 24cf 653d
00000100: 54ff a4bd 44cf 9e3d db84 31bc ba6a 623d
00000110: 9363 693d f4e2 cabd 2973 6c3d 72f2 06bd
00000120: 429b 343d 7488 debd 5fac 91bd fbdd b4bd
00000130: 9176 a23d d01b 353e 65fd fe3d 1cd2 0d3e
00000140: ddb5 283d c40a 5e3d 8d32 ff3c 4ae0 c23c
00000150: 5588 8b3c 3002 cbbd 4c14 bf3d 154e b0bd
00000160: b4d6 193e 1f7b 013e bcd9 af3c 3ad4 263e
00000170: 3da8 803c 4a5b 94bc b23c 7cbd 3607 89bd
00000180: 9049 83bd 2bdb c73d da28 233c 2787 353c
00000190: 2651 213d e9f1 fa3d f3b2 243d 5b57 70bd
000001a0: 3093 c4bd 7d23 c83d dfd1 e4bd 9cd3 443d
000001b0: 1ee0 c03d 9062 8f3d 70da 91bb fce2 b2bc
000001c0: ab70 023e 4b64 84bd 8d44 f23c 820c 19bd
000001d0: feb4 923d 7a59 02bd 73f8 b0bd 0751 41bd
000001e0: 1768 d83d 8a7f 3f3d 2dfa babd 1376 aabd
000001f0: f052 9bbc 91bc 79bc dfb2 1abd 748c 0b3e

out.weight f4 [1, 128]
0.037501357 0.008145352 -0.08817639 0.055826064 -0.20291084 -0.023770621 -0.069814436 -0.24232659
-0.070853755 -0.038459823 -0.08915124 0.045576487 -0.050612178 -0.04714221 0.028182184 -0.24859959
0.113056056 0.10094166 0.037240464 -0.023430156 0.027250556 0.021973316 0.052285027 -0.20495403
0.009459921 -0.3000606 -0.40774214 -0.05433345 -0.08460207 -0.09398044 -0.15756457 -0.4830611
0.12642545 -0.18725763 0.07927206 -0.026292892 -0.2530437 -0.15100989 -0.15463963 -0.0072950125
0.027218487 0.13850826 -0.041929793 -0.021633757 0.0011159455 -0.0012708743 -0.096434854 -0.034669258
0.12423733 -0.34509498 -0.10761069 -0.24954611 0.04845212 -0.2272241 0.029161837 0.01118916
-0.24573283 -0.124361865 0.01958458 -0.041553844 -0.024700223 -0.1816337 -0.11032649 0.06667446
-0.1467433 -0.2009574 -0.040869642 -0.23994108 0.0040927352 0.14162752 -0.19202846 -0.08916351
0.08037147 -0.07272905 0.058216583 -0.023084853 0.04277717 -0.42057312 -0.105275325 -0.08353995
-0.018572377 -0.16085252 0.009312526 -0.026014447 -0.012286853 0.1231814 -0.0015077923 0.03860103
-0.27080584 -0.3016636 0.04407054 -0.48783487 0.121468864 -0.24399406 -0.12446314 0.08912586
-0.28545955 -0.16860116 -0.0062552835 -0.07227619 -0.028368827 -0.04153391 -0.22077245 -0.03193389
0.13807924 0.01441828 0.035549857 0.0441924 0.055115335 -0.020061491 0.08876562 0.0513879
-0.21095912 -0.043422494 0.053641535 -0.0136762755 -0.027481755 0.10685034 0.07815278 -0.014281148
-0.13518889 -0.008226784 0.080299556 0.052287515 -0.16976961 0.08523487 0.06775352 -0.21908978
00000000: 069b 193d 1574 053c d395 b4bd dfa9 643d
00000010: dcc7 4fbe 9bba c2bc dffa 8ebd 7624 78be
00000020: c61b 91bd 0c88 1dbd ed94 b6bd 69ae 3a3d
00000030: b74e 4fbd 3118 41bd 53de e63c e490 7ebe
00000040: ef89 e73d 80ba ce3d 7589 183d 99f0 bfbc
00000050: 8f3c df3c 6201 b43c d328 563d 78df 51be
00000060: c9fd 1a3c 8ba1 99be 94c3 d0be c08c 5ebd
00000070: da43 adbd d178 c0bd 9b58 21be c953 f7be
00000080: ac75 013e 77c0 3fbe 6459 a23d 3164 d7bc
00000090: f28e 81be 56a2 1abe da59 1ebe 000b efbb
000000a0: 4ef9 de3c 1cd5 0d3e 93be 2bbd 4739 b1bc
000000b0: eb44 923a 7793 a6ba a37f c5bd 5a01 0ebd
000000c0: 2470 fe3d 4ab0 b0be fe62 dcbd 0489 7fbe
000000d0: bb75 463d 6fad 68be cee4 ee3c bd52 373c
000000e0: 63a1 7bbe 6fb1 febd d76f a03c 5d34 2abd
000000f0: 1f58 cabc 2ffe 39be dbf2 e1bd 9f8c 883d
00000100: e043 16be c7c7 4dbe ed66 27bd 1db3 75be
00000110: 5a1c 863b ce06 113e 1ca3 44be 5c9b b6bd
00000120: cc99 a43d f8f2 94bd 8374 6e3d 721c bdbc
00000130: 1d37 2f3d 5c55 d7be 979a d7bd fe16 abbd
00000140: 1925 98bc 86b6 24be 9193 183c 401c d5bc
00000150: cc4e 49bc 8846 fc3d 1da1 c5ba 1d1c 1e3d
00000160: 10a7 8abe a773 9abe 5083 343d 7ec5 f9be
00000170: abc4 f83d 94d9 79be 88e6 febd 9e87 b63d
00000180: c127 92be c8a5 2cbe 1ff9 ccbb 8a05 94bd
00000190: be65 e8bc 761f 2abd 2c12 62be 1ccd 02bd
000001a0: a564 0d3e a63a 6c3c ba9c 113d 1703 353d
000001b0: 9ec0 613d ff57 a4bc c0ca b53d 1e7c 523d
000001c0: ab05 58be c9db 31bd 3ab7 5b3d 7512 60bc
000001d0: 6b21 e1bc 5ad4 da3d 910e a03d 7afb 69bc
000001e0: f56e 0abe a2c9 06bc 1874 a43d 6f2b 563d
000001f0: 16d8 2dbe 9f8f ae3d 5cc2 8a3d 1259 60be
