experiments/2022-6-29_linear/save/linear_bin_class30000.pth (torch, 49299 bytes, 5 tensors)

fc1.weight f4 [64, 51]
000000 ab fb 04 3d c7 c2 99 3d 5d a0 06 bd dd 73 5c 3d
       0.03246657 0.07507854 -0.032867778 0.053821433
000010 39 df 95 bd 11 f7 e6 3c ee a6 11 be 7a 7e 23 3d
       -0.07317967 0.028193982 -0.14223835 0.03991554
000020 ec bb fc 3d c5 6a 37 be e6 66 a6 3d 6c 48 d6 3c
       0.12340531 -0.17911823 0.08125095 0.02615758
000030 ed 32 f3 3c 92 01 c2 bc 87 39 8a 3d 7a a9 c4 bd
       0.02968737 -0.02368239 0.06749254 -0.096026376
000040 53 68 85 3d 28 e9 a8 3c f0 bb 10 be bb 5d ef bb
       0.06514039 0.02061899 -0.14134192 -0.0073048747
000050 58 49 84 bd 65 39 bf bd c1 5b cc bd 78 14 be 3d
       -0.06459302 -0.09337119 -0.09978438 0.09281248
000060 50 34 3e be 7f ff dc bd 86 28 22 bd 90 80 24 be
       -0.18574643 -0.107909195 -0.039589427 -0.16064668
000070 28 e2 f5 bc 41 b2 0d be ab d1 53 3d 57 b2 27 be
       -0.030015066 -0.1383753 0.051713627 -0.16376625
000080 22 50 dd 3d 10 80 58 bd 1e aa c0 bd f2 13 b1 3d
       0.108063 -0.052856505 -0.09407447 0.086463824
000090 e1 7e 5d bd c6 ed 83 3d 36 96 79 3c 71 97 f3 bd
       -0.05407608 0.06441836 0.015233567 -0.118941195
0000a0 24 95 7c bc 5f ca 1b bd 09 bf 6d bc ad 11 95 3d
       -0.015416417 -0.038034793 -0.014510878 0.07278762
0000b0 ec 9a a5 3d 39 40 0b be 4c b9 c4 3c 9b b0 cc 3c
       0.0808619 -0.13598718 0.024014138 0.024986556
0000c0 fb 68 55 bb ae d9 12 be 68 05 0e be 52 99 5d bd
       -0.0032563794 -0.1434085 -0.1386925 -0.054101296
0000d0 fd f6 db bd de 4f eb 3d a5 33 25 3d fb 92 6d 3d
       -0.10740469 0.11489843 0.040332455 0.0580015
0000e0 a2 64 35 3d 04 a4 1f bb 31 6f e0 3d 5c c2 cb bd
       0.044285424 -0.0024359236 0.10958708 -0.099491805
0000f0 dc 73 10 3c b1 bc c3 bd 54 db 30 3d a8 85 45 bd
       0.0088166855 -0.095574744 0.043177918 -0.048223168
000100 1b bf 2f 3d 91 fd ee bc cf d9 ed 3d 37 f9 a9 bd
       0.04290686 -0.029173644 0.11613809 -0.08299487
000110 90 08 ab bd 35 0b ab bd 4d f8 00 3e 44 23 3f 3d
       -0.083512425 -0.08351747 0.12594719 0.04666449
000120 d2 f9 09 3e aa ab ec bd 4c 39 0e be 3e 5d e0 bd
       0.13474205 -0.1155618 -0.13889045 -0.109552845
000130 79 e9 c0 bd 0d 50 68 3d 49 60 4d 3d 52 4a ee 3d
       -0.094195314 0.056716967 0.050140653 0.11635269
000140 5f 19 94 bd e0 7f c3 bd 66 28 98 3d 5a d5 67 bd
       -0.07231402 -0.095458746 0.074295804 -0.056599952
000150 51 0d ae 3d db 1a 08 bd c1 0c a4 3d 1d d1 de bd
       0.08498634 -0.033228736 0.08010245 -0.10879729
000160 de b8 90 bd 03 dd 2e 3d f2 81 f2 3c 99 3b 12 bd
       -0.070665106 0.042691242 0.029602978 -0.035701368
000170 72 f0 aa 3d 33 f4 c2 3d 9c f6 cf bd f0 19 99 bd
       0.083466426 0.095192336 -0.10154459 -0.0747565
000180 aa 4b 03 3e 38 89 41 bd a6 55 4b bd fc bd 0a be
       0.12821832 -0.047250003 -0.049642228 -0.13549036
000190 97 3a a4 bd ad 46 0f 3d 1f 69 97 bc ed 2a d0 bd
       -0.080189876 0.03497951 -0.018482743 -0.101644374
0001a0 58 42 57 3b 6f e4 c3 bd 0c 4d f3 bd e7 ea 9d bd
       0.003284594 -0.095650546 -0.1187993 -0.0771082
0001b0 b4 fd fa bd 21 9a b6 bd 26 55 0f 3e 07 a9 d8 3c
       -0.12255421 -0.089161165 0.13997325 0.026447786
0001c0 18 bf 30 3d 83 bc 05 be 0e 59 bc bd 3a e9 3e bd
       0.04315099 -0.13060193 -0.09196673 -0.04660914
0001d0 f2 5f b3 3c 6e 57 fc bd 18 21 77 bd 42 af ab bd
       0.021896336 -0.123213634 -0.060334295 -0.08383037
0001e0 b3 73 cb 39 ec 6b 55 bd cb fa 1e bc 31 54 c2 bd
       0.0003880538 -0.052104875 -0.009703348 -0.094887145
0001f0 b5 d7 c4 bd 73 4e a7 bd 8a 53 44 bd 10 59 e2 bd
       -0.09611455 -0.0816926 -0.04793123 -0.110521436
000200 46 74 f0 3d f4 a8 e3 bc 09 be f6 3d 9a b5 32 3d
       0.117409274 -0.027790524 0.12047965 0.04363022
000210 9c d7 f2 bd c5 75 c6 3d 84 cf 1d bd c5 db 5b bd
       -0.118575305 0.096904315 -0.03852798 -0.053676385
000220 a2 0b ee bd 28 8d 0e be a1 19 24 3d 3c 94 fa bc
       -0.116233125 -0.13921034 0.040063504 -0.030588262
000230 52 4c 5f 3d 04 59 eb bd 71 e9 d4 3d 8f 82 d2 bd
       0.054516144 -0.11491588 0.10396088 -0.10278808
000240 43 13 c6 bc ae 98 ef 3c a1 0c 94 3d b2 84 e7 3d
       -0.024179107 0.029247608 0.07228971 0.113046065
000250 0a 9f 02 3e 63 64 e3 bd 4f 58 10 3d 66 b3 76 bd
       0.12755981 -0.111031316 0.035240468 -0.06022968
000260 5b 69 7b bc b3 79 8e bd 46 47 15 3e 27 6b d2 bd
       -0.015344943 -0.06956806 0.1457797 -0.10274344
000270 ce 6c e3 3d 85 35 8c 3d 00 83 3a 3d 43 9b 2e bd
       0.11104737 0.068461455 0.045535088 -0.042628538
000280 8a 1b 11 3e 36 39 fc 3c c3 1f 62 3d 8a cf d8 bd
       0.14170662 0.030788999 0.05520607 -0.1058646
000290 a1 d8 70 3d 2b 7e 5b 3c 31 30 37 bd eb 55 f6 3d
       0.058800343 0.01339678 -0.044723693 0.12028106
0002a0 4a 57 8c 3d 64 86 74 bd 93 19 91 bd 54 8c e8 3c
       0.068525866 -0.059698477 -0.07084956 0.028387226
0002b0 47 1b c6 3d b8 79 12 bd f6 e7 2a bd 9c bc 00 bd
       0.096731715 -0.03576061 -0.04172512 -0.031429872
0002c0 88 2d d6 bd f5 8f a8 3d a8 3c 01 3e 84 fc 06 be
       -0.10457903 0.082305826 0.12620795 -0.13182265
0002d0 0b d6 8f 3d 54 b1 b6 3d 54 5f d0 3c c4 a8 95 bc
       0.07023247 0.089205414 0.025436081 -0.01826895
0002e0 17 b2 bb 3d 96 bf 96 3d 09 1f b4 3d 2d 7e c4 bb
       0.09164827 0.07360761 0.08794982 -0.0059964866
0002f0 ef ca 17 bd a0 f9 49 3d a5 dc bc bb 8a d0 2a bd
       -0.037058767 0.049310327 -0.0057636076 -0.041702785
000300 c9 a4 fc 3d ad 31 0f 3e 03 df 62 bc 04 38 82 3a
       0.12336118 0.13983794 -0.013847115 0.0009934907
000310 49 14 a9 3c 69 7a 08 bc 0e 16 88 3d b3 85 72 3d
       0.020639556 -0.008329966 0.066448316 0.059209537
000320 de 36 02 be 74 7a 93 bc d4 90 0d 3e d8 88 5f 3d
       -0.12716243 -0.018002726 0.13824779 0.054573864
000330 c0 37 e4 bb 55 e6 ac bd ad 73 af bd 5e 71 00 be
       -0.0069646537 -0.0844237 -0.08566985 -0.12543246
000340 11 f5 3a bd 1c b1 41 3d ff da b6 3d 84 67 84 3d
       -0.04564387 0.047288045 0.08928489 0.064650565
000350 c2 7e fd bd 08 75 ac bd 71 08 b5 bc fd b4 0a 3e
       -0.12377693 -0.084207594 -0.022098752 0.13545604
000360 20 f0 a5 3c ad 88 14 bd d1 49 6d 3d d8 74 5a bd
       0.020256102 -0.036263157 0.057931725 -0.053334087
000370 47 9e b9 bd ae 50 d1 3d ef 65 82 bd 13 f5 e5 bc
       -0.09063392 0.102204666 -0.063670985 -0.028070962
000380 c8 a4 0e be 82 ee bf 3d c1 45 d9 3d ef 07 51 3d
       -0.13930047 0.09371664 0.106090076 0.051032957
000390 64 f6 c7 bd 1a 84 0d be 20 ea e8 bd 97 d9 d5 3d
       -0.09763792 -0.13819924 -0.11372781 0.104418926
0003a0 f8 ae 89 3d 0e 53 f1 3d e9 3b 96 3d 87 29 11 3d
       0.06722826 0.117834195 0.07335646 0.035439994
0003b0 86 bb b3 ba 8e 18 da bd f0 b3 f5 bd 50 1e 06 be
       -0.0013712503 -0.10649215 -0.11997211 -0.13097501
0003c0 9f ca 6a 3d 6b cc 8c bd d7 db e6 bc b9 0a a5 bd
       0.05732214 -0.06874927 -0.028181 -0.08058686
0003d0 c7 07 d1 bc 0b d8 c9 bd 84 62 bb bd 1b 41 3e 3d
       -0.025516404 -0.0985566 -0.0914965 0.04644881
0003e0 5a 75 2a bd 41 0a b1 3d 5b 00 38 bd d8 5e d2 bd
       -0.04161582 0.08644534 -0.044922214 -0.10271996
0003f0 10 65 ca bc bc 03 8b bd 68 79 2f bd 62 81 08 be
       -0.024706393 -0.06787822 -0.04284039 -0.13330606

fc1.bias f4 [64]
000000 b5 57 a2 bd 55 11 ae bd 09 9a 80 3d 0f ea 96 3d
       -0.07926885 -0.084993996 0.0627938 0.07368862
000010 1c 70 23 bd 7c 4d 0d 3e bc 8f f7 bd f1 db 70 3d
       -0.039901838 0.13799089 -0.12087962 0.058803502
000020 a5 af 9d bd b6 69 02 bd 3b 12 0a be d2 14 d6 bd
       -0.07699517 -0.031839095 -0.13483517 -0.1045319
000030 e8 50 f3 bd ac 14 e9 3d 77 c6 57 bd 4a 14 cd 3d
       -0.11880666 0.11380896 -0.052679505 0.100136355
000040 77 55 9b bd 84 98 0e bd f6 5d 3c 3d e2 2a 8f 3d
       -0.075846605 -0.03481342 0.045988046 0.06990601
000050 1c 58 1a bd 32 04 99 3d e6 7d ba 3d c4 f0 51 3e
       -0.037681684 0.07471503 0.091060445 0.20502001
000060 be cb 03 3e 23 69 c2 3d 9f 03 2d bd 43 fa 20 bd
       0.1287069 0.094927095 -0.04223978 -0.03930117
000070 56 60 82 3c c5 82 e3 3d ad de f5 bb 46 0d c1 3d
       0.015915077 0.11108927 -0.0075033517 0.0942636
000080 df 87 ac bd ff d0 41 3e 3b c1 8c bc 25 5a c5 bd
       -0.08424353 0.18927382 -0.017181983 -0.09636334
000090 33 49 8b bd f2 f7 da bd 32 12 d2 3c 8f 13 aa bd
       -0.06801071 -0.10691823 0.025643442 -0.08304512
0000a0 1a 45 24 bd e1 36 10 bc 2c e0 ae bd b8 3a 4d 3d
       -0.040104963 -0.008802147 -0.08538851 0.050104827
0000b0 28 95 91 bc 19 b1 f3 3c 07 3d 97 3d a7 20 ad bd
       -0.017771319 0.029747533 0.07384687 -0.084534936
0000c0 49 9e 9c 3d 98 45 43 bb 21 a6 a3 bd b9 0e 82 bd
       0.07647378 -0.002979612 -0.07990671 -0.063504644
0000d0 90 8c 77 3d b8 05 18 3e 3b ad 93 bb 55 c5 8e bd
       0.060436785 0.14845932 -0.0045067347 -0.06971232
0000e0 67 d5 9d 3d 2e 44 9f 3d 6d 64 0b be 2d c5 ca bc
       0.07706719 0.07776676 -0.13612528 -0.024752224
0000f0 2f 7d 1b bd e5 b2 74 bd d1 fb 9e bd 2c ad e8 bd
       -0.03796118 -0.05974092 -0.07762874 -0.11361155

fc2.weight f4 [128, 64]
000000 a8 cc f9 3d 8a d5 e9 bd bd d9 ed 3d 4a 70 ca bd
       0.12197238 -0.114176825 0.11613796 -0.09884699
000010 b8 70 f8 bc 92 5c 52 bd 24 06 89 bd 71 c7 35 3d
       -0.030327186 -0.051357813 -0.06690624 0.044379655
000020 58 9f 92 3d 70 01 a9 bd 04 2e 6f bd 58 ab 82 3d
       0.07159299 -0.08252227 -0.058393493 0.063803375
000030 e0 8d 77 bc 4b d1 ee 3c 66 b7 84 3d 8a a4 3f bd
       -0.015109509 0.029152533 0.06480293 -0.046787776
000040 aa d5 8f bd d8 e2 37 3d 61 a5 3b bd 34 a2 aa bd
       -0.07023175 0.04489407 -0.045812014 -0.08331719
000050 db 2f 82 bd e9 6f 6e bd ee 2b fe 3d 5e 65 b1 3c
       -0.06356784 -0.058212195 0.12410723 0.021654781
000060 bc 48 59 3d 60 dc 84 3c f2 96 ae bd 44 bd b8 3d
       0.05304788 0.016218364 -0.08524884 0.090204746
000070 ff 81 9f bc 28 8b 08 bd e1 99 d0 3d be e1 82 bd
       -0.019471167 -0.033335835 0.101856 -0.06390713
000080 88 ee cf 3c 48 25 dd bd bd f0 81 3d 44 5f 4b 3d
       0.025382295 -0.107981265 0.06344745 0.0496514
000090 19 e9 d3 bd 2a d6 8e 3d 6f db 60 3c 7e 30 84 bd
       -0.10347194 0.06974442 0.013724192 -0.06454562
0000a0 fe a2 d9 3d a6 7e 57 3d d9 54 32 3d c7 4c 3e bd
       0.106267914 0.052611016 0.04353795 -0.04645994
0000b0 ba 5e 8c bd 40 d6 89 bd 7e ee 3f 3d 20 cb 09 3d
       -0.06854005 -0.06730318 0.046858303 0.03364098
0000c0 b1 da 9a bd 44 f6 e7 3d 04 3f 94 3d 4c 7c 43 bd
       -0.07561243 0.11326268 0.07238582 -0.04772596
0000d0 17 55 84 3d 24 57 63 bd 36 90 20 3d c4 13 d5 3d
       0.06461542 -0.055503026 0.03920003 0.104041606
0000e0 7c 12 e3 bd b3 2a 81 bd 1d 74 e7 bb 13 c7 96 3c
       -0.1108751 -0.06306972 -0.0070634023 0.018405473
0000f0 c3 bd d2 bd d9 7e a8 bd 13 8d 67 bc 61 63 94 bc
       -0.102901004 -0.08227319 -0.014132756 -0.018113794
000100 e0 6b 04 3d 18 1e 82 3c 6f f8 d1 3c 67 f8 3a 3c
       0.03232944 0.01588349 0.025631158 0.011411763
000110 30 64 6b 3c dc 4e ed bb ec de 37 3d 70 af ae 3d
       0.014367148 -0.007242067 0.04489033 0.08529556
000120 95 03 72 bd 98 64 81 bd e3 7a 63 3d 4a 1f b9 bd
       -0.059085447 -0.06318015 0.055537116 -0.09039171
000130 18 5d a6 3d 24 e2 83 3d b3 f8 aa 3c 6e fd 52 bd
       0.08123225 0.06439617 0.020870542 -0.05151122
000140 8b 47 e7 3b 42 98 c1 bd a9 52 e6 bd c4 0e f1 3d
       0.007058089 -0.09452869 -0.11246235 0.117703944
000150 d3 e7 df bd 1b 73 d4 bd e6 6a 3f bd ba bb 91 3c
       -0.10932889 -0.10373517 -0.046732806 0.01778971
000160 ca 29 ff 3c e6 b4 74 bd 9f d0 d9 bb 50 ab e4 bc
       0.031147856 -0.05974283 -0.006647184 -0.02791372
000170 6c 30 d6 3d 5b 17 e7 3d a5 a6 52 3d c5 da 9a b8
       0.104584545 0.112837516 0.051428456 -7.384041e-05
000180 a4 fb bf 3d 77 74 be bd 0b 44 63 3d 50 cd 94 bd
       0.093741685 -0.09299558 0.055484813 -0.07265723
000190 cc 8c cf 3d 34 1f e2 bd 47 33 3e 3d 9e 7a d2 bd
       0.10134277 -0.11041108 0.04643562 -0.102772936
0001a0 4f 36 99 3d b9 e1 e8 3c 6c 76 e0 3d 13 16 c1 bd
       0.07481062 0.028427945 0.10960087 -0.094280384
0001b0 90 c3 a4 3d 03 dc aa bd cd 38 8a bd cd d7 44 3d
       0.08045113 -0.08342745 -0.06749115 0.048057366
0001c0 48 b7 8d bc cd 9d c3 bd c7 77 d4 bd 94 ed 04 bd
       -0.01729931 -0.095515825 -0.10374408 -0.032453135
0001d0 ba ba 0d 3d 2b 3d fa 3d 46 80 bc 3d 80 41 06 3b
       0.034601904 0.12218698 0.09204154 0.0020485818
0001e0 a8 4b 9b bd e7 78 dd bd d3 b3 e4 3d 9c e0 8c bd
       -0.0758279 -0.10814076 0.11167111 -0.06878778
0001f0 57 ce b0 bc 16 e5 cd bd 94 0c 9b bd 30 94 c9 3c
       -0.021582766 -0.1005346 -0.075707585 0.024606794
000200 cf df e9 bc 40 86 6a 3c 7f 64 e0 b8 cb e5 10 3c
       -0.028549103 0.014314234 -0.00010699871 0.008843849
000210 68 e6 ca bc 3d f9 2e bb cc 8c 5e 3d 88 dc bc 3d
       -0.02476807 -0.002669885 0.054333493 0.092217505
000220 f1 f1 db 3d 83 7c cf bd de f6 d7 bd 78 0a 99 bc
       0.10739506 -0.101311706 -0.10545133 -0.01868175
000230 20 3c 1c bc 7d 78 95 3d 34 7f f3 3d 8b 52 0e 3d
       -0.009535819 0.07298372 0.118894964 0.034746688
000240 4b 88 b3 bd 1d d2 41 bc 98 aa a6 3d fc 64 43 3d
       -0.0876623 -0.01182988 0.08138007 0.047703728
000250 80 fe b1 bd 70 39 0d 3c d1 2e f4 bd b1 70 31 bd
       -0.0869112 0.008619651 -0.11922992 -0.04332036
000260 3d a6 b8 3d e9 84 53 bd 17 a8 a1 3d 08 d0 d0 bd
       0.090160824 -0.051640425 0.07893389 -0.10195929
000270 ec 82 e3 3d 9c b5 80 3d a4 f2 a5 3d fb aa 12 3d
       0.11108956 0.06284639 0.08102921 0.03580759
000280 10 18 11 3c 9e 4b 67 bd 7a 97 8b bd d8 cc af bd
       0.008855835 -0.0564686 -0.06816001 -0.08583993
000290 ab b4 d6 3d 38 98 31 bd fe dd 65 3b d8 aa f0 bd
       0.104836784 -0.043358058 0.0035074945 -0.11751336
0002a0 72 2e 0c 3d 0d 50 24 bd 08 a5 ca bd d5 82 82 3c
       0.03422398 -0.040115405 -0.098947585 0.015931526
0002b0 b4 d4 eb bd 49 8b 3f bc c0 f6 cd bd 18 10 a2 3d
       -0.11515179 -0.011690923 -0.100568295 0.07913226
0002c0 ef 48 c6 bd ac 9a af 3c a1 5c 80 3d 28 8c cc bd
       -0.0968188 0.021436058 0.062676676 -0.0998767
0002d0 d7 63 a7 3d 52 84 dd 3d 50 d0 9c bd 40 7e 2b 3c
       0.0817334 0.10816254 -0.0765692 0.010467112
0002e0 92 06 22 3d 55 89 db 3d 70 ff c7 3d f8 f0 d5 bd
       0.039557047 0.107195534 0.09765518 -0.10446352
0002f0 dd 41 d0 bd a3 23 e2 bd 7a ed 50 bd 15 54 ce bc
       -0.101688124 -0.110419534 -0.051007725 -0.025186578
000300 31 e0 5b bd 28 af a8 3d 0b 9c b0 bd c2 4c da bd
       -0.053680602 0.082365334 -0.08623513 -0.10659172
000310 94 1e c8 bd a1 91 97 bd 32 be fa 3d 1a 8a 80 3c
       -0.09771457 -0.074008234 0.12243308 0.015690852
000320 98 67 e7 bc 40 d5 22 bd c4 08 c5 bd 44 b6 2d bd
       -0.02824764 -0.039754152 -0.096208125 -0.04241015
000330 f6 dd 86 3d 2e 81 95 3d a9 4f ae 3d d6 07 57 3b
       0.065853044 0.0730003 0.08511288 0.0032811067
000340 18 a1 94 bd 39 27 a6 bd 1d ae f8 3d 66 71 e7 bd
       -0.07257289 -0.0811295 0.121425845 -0.11300926
000350 a8 74 c2 3c d0 a2 43 bc 95 b2 e6 3d c2 f1 5e 3d
       0.023737267 -0.011940673 0.112645306 0.054429777
000360 f7 15 11 bd 05 39 de bd 22 37 c0 3b 82 0e b3 bd
       -0.035421338 -0.10850719 0.0058659473 -0.087430015
000370 44 f7 58 bc 5c 1a c2 3c 19 1c 79 3d 27 b9 12 bd
       -0.0132425465 0.02369421 0.06081781 -0.035821106
000380 00 cf ac bd 25 8b f1 bd 3c a0 fb bd 78 71 80 3c
       -0.084379196 -0.11794118 -0.12286422 0.015679106
000390 27 92 ab bd 7f 77 92 3b 94 c2 72 bd 1e 3e ad bd
       -0.08377486 0.0044698115 -0.059267595 -0.084591135
0003a0 c2 5b a3 3d cf b1 79 3d db 93 a9 3d 70 78 f5 3d
       0.07976486 0.060960587 0.08280154 0.11985862
0003b0 d8 39 b9 bd 4b 68 88 bd 91 0d c1 bd 55 87 a9 3d
       -0.09044236 -0.06660517 -0.09426416 0.08277766
0003c0 81 db 89 3d 3f 19 c0 3d 9a 0c bb bd 56 4a 89 bd
       0.0673132 0.09379815 -0.09133263 -0.067036316
0003d0 ab 64 f9 3d 67 33 f7 bd f4 14 ab bd 40 7e 3c 3d
       0.12177404 -0.12070351 -0.08353606 0.04601884
0003e0 a1 3e e5 bd 6b 25 33 bd ac aa 59 3d fa 21 d0 3d
       -0.11193586 -0.043736856 0.05314128 0.101627305
0003f0 43 d9 7a bc a4 aa e3 bd 9f bc 59 3d 15 e6 fe 3d
       -0.015310588 -0.111165315 0.0531584 0.124462284

fc2.bias f4 [128]
000000 c6 8d cc bd b1 1f a6 bd 94 80 6a 3d 68 62 fc bd
       -0.09987979 -0.081115134 0.057251528 -0.12323457
000010 b9 e1 f8 3d 43 af 91 3d cd 89 95 3d 48 d0 1f 3e
       0.12152428 0.07113507 0.07301674 0.15606797
000020 c1 ac f3 3d 65 cf 66 bd fb be b3 3d 8c 88 68 3d
       0.118981846 -0.05635013 0.08776661 0.056770846
000030 8c f0 84 3d cc 05 05 bd db b6 8e bd d1 bc 94 bd
       0.06491193 -0.03247623 -0.06968471 -0.07262576
000040 7e aa 5d 3c 3b 7a eb bb 2b d7 60 ba a2 b5 e9 3d
       0.013529418 -0.007186202 -0.00085769844 0.11411597
000050 3c f5 d1 bd bb d7 bd 3c 4f d2 33 3c 44 8e 15 3d
       -0.10251853 0.023174157 0.010975434 0.03651263
000060 b0 d5 a2 3d 46 7b 10 3e 1b c1 c9 bb 5a 8c 06 3d
       0.07950914 0.14109525 -0.006157053 0.032848693
000070 c7 21 94 bd fe f3 86 bd 14 99 ca bd ba 94 17 3e
       -0.07233005 -0.065895066 -0.098924786 0.14802828
000080 86 8e bf bc 33 7c 95 bd 03 e3 e2 bc ac 25 97 bb
       -0.02338339 -0.0729908 -0.027696138 -0.004612645
000090 ea 31 cd 3d 54 d2 08 3e 48 e8 9e bd d4 44 f4 bb
       0.10019286 0.13361484 -0.07759148 -0.007454494
0000a0 43 a6 e5 3d dd e0 56 3d 69 54 73 3d e7 c9 16 bd
       0.112133525 0.05246054 0.05940667 -0.036813643
0000b0 d9 64 ac 3c 6a b9 0c 3c 32 7e a2 3c 68 df ae 3d
       0.021044182 0.008589128 0.019835565 0.08538705
0000c0 f5 6d 40 bd 22 2c 11 3d 8c 9e db 3d 9e 0c ac 3d
       -0.046979863 0.03544248 0.107236 0.08400844
0000d0 f4 3d f6 bd 02 c9 08 bc 7b 91 9b 3d ab d7 95 3d
       -0.12023535 -0.008348705 0.075961076 0.07316526
0000e0 e4 e6 04 3e cd 56 8d bd 50 68 c0 bd f3 25 42 3d
       0.12978703 -0.069013216 -0.09394896 0.047399472
0000f0 57 8d ca 3d 2d 1f 0d 3e d1 f4 90 3d 9b 83 6d 3d
       0.0989024 0.13781424 0.07077945 0.057986837
000100 d2 80 a6 bd 91 de 91 3d ab d0 36 bc 63 8c 43 3d
       -0.08130039 0.07122529 -0.011158149 0.047741305
000110 e5 f3 69 3d f0 70 c9 bd 15 b2 53 3d ce c0 0f bd
       0.05711736 -0.09835994 0.051683504 -0.035095982
000120 c6 46 3b 3d e8 47 df bd c5 14 91 bd ee 1a b5 bd
       0.04572179 -0.10902387 -0.070840396 -0.08843027
000130 d8 5b a5 3d 5e 94 27 3e e0 58 f8 3d 9a 34 0b 3e
       0.080741584 0.16365191 0.121263266 0.13594285
000140 5e 65 26 3d 22 40 49 3d 93 e5 00 3d 57 87 be 3c
       0.040624015 0.049133427 0.03146894 0.023257894
000150 3b 77 89 3c d6 bf c9 bd 35 15 bf 3d 79 e9 af bd
       0.016780486 -0.09851043 0.09330217 -0.08589453
000160 cf 23 11 3e f0 9f ef 3d 1d db b9 3c e3 1b 17 3e
       0.14173816 0.117004275 0.02268749 0.14756732
000170 42 f2 87 3c d7 29 d3 bc 2e d0 7e bd 90 1e 88 bd
       0.01659501 -0.025776787 -0.062210254 -0.06646454
000180 a0 43 86 bd c5 f3 bc 3d 1c 3f 20 3c ab b4 17 3c
       -0.06555867 0.09226183 0.009780671 0.009259383
000190 b4 be 1d 3d d9 59 f8 3d 3f 37 08 3d e5 ff 70 bd
       0.038511947 0.12126512 0.03325581 -0.05883779
0001a0 2f 2a c3 bd e5 21 c9 3d 92 75 e4 bd 27 81 4a 3d
       -0.0952953 0.09820918 -0.11155237 0.049439576
0001b0 d5 59 c4 3d 41 23 8e 3d b2 59 83 bb 03 c2 ad bc
       0.095874466 0.06940318 -0.0040084952 -0.021210676
0001c0 bd 5a f7 3d f6 d6 84 bd d0 8b ff 3c f2 a9 19 bd
       0.12077854 -0.06486313 0.031194597 -0.037515588
0001d0 9d 3c 91 3d 1f 2a 00 bd 9e 2c b0 bd 6d 9d 41 bd
       0.07091639 -0.03129017 -0.0860226 -0.047269274
0001e0 e0 b1 cf 3d 79 87 3e 3d 7b 28 ba bd d5 ed a9 bd
       0.10141349 0.046515916 -0.09089752 -0.08297316
0001f0 8b dd a2 bc f3 b0 72 bc 74 4c 19 bd b1 7c 04 3e
       -0.01988103 -0.014812696 -0.037426427 0.12938191

out.weight f4 [1, 128]
000000 9b 8b 16 3d 22 d1 fb 3b 87 b5 ae bd 71 fc 60 3d
       0.036754232 0.0076848427 -0.08530717 0.054928247
000010 e6 0b 48 be 7f 9d bc bc 68 eb 86 bd 04 aa 73 be
       -0.19535789 -0.023024319 -0.06587869 -0.23795325
000020 50 32 85 bd 6b 7f 1e bd 73 11 b1 bd 81 dd 3e 3d
       -0.06503737 -0.038695734 -0.08645906 0.04659796
000030 11 1c 43 bd 00 66 42 bd 83 83 e3 3c ff ef 7e be
       -0.047634188 -0.047460556 0.02777267 -0.24896239
000040 d2 67 e7 3d 29 4a ce 3d 16 2d 1a 3d 86 aa a7 bc
       0.11299099 0.10072739 0.037640654 -0.020467054
000050 51 33 db 3c 45 27 b9 3c 70 57 58 3d ee 81 4d be
       0.026757868 0.022601733 0.052817762 -0.20069095
000060 cf 51 28 3c f0 ac 95 be 91 f3 cd be 20 2e 58 bd
       0.010273411 -0.29233503 -0.4022489 -0.052778363
000070 98 81 ae bd 57 a7 c1 bd fc 9e 21 be 86 8b f3 be
       -0.08520812 -0.09455746 -0.15783304 -0.47567385
000080 2a 7d 01 3e 7b f9 3f be db ea a1 3d 1d 69 cf bc
       0.12645403 -0.18747513 0.07906123 -0.025318677
000090 17 92 7f be 6c a2 13 be d5 ae 1e be dc 08 f4 bb
       -0.24958073 -0.14417428 -0.1549638 -0.007447345
0000a0 3d d9 f4 3c 57 63 0e 3e b2 80 2c bd c2 0c b4 bc
       0.029888744 0.13905083 -0.04211492 -0.02197874
0000b0 17 40 de 3a aa be b1 ba 6a fe c2 bd 0b 41 fa bc
       0.0016956356 -0.0013560851 -0.09521182 -0.030548593
0000c0 aa d2 fd 3d 9d 81 ae be 0a 33 d4 bd a2 ec 7b be
       0.123936966 -0.34083262 -0.103612974 -0.24601987
0000d0 5f 4b 43 3d 3e 65 68 be bb 3b fb 3c 3c 74 3c 3c
       0.0476793 -0.22694871 0.03066813 0.011502322
0000e0 4f 03 72 be d6 63 ff bd 06 b2 9a 3c 80 e5 21 bd
       -0.23634075 -0.12470214 0.018883716 -0.03952551
0000f0 42 1d b5 bc b1 c9 34 be 93 03 de bd 7f 16 8a 3d
       -0.022108678 -0.17655064 -0.108405255 0.06742572
000100 b8 d2 16 be a8 b0 49 be 0a a9 27 bd bd 62 70 be
       -0.1472882 -0.19696295 -0.040932693 -0.23475166
000110 47 6a a3 3b 6b 07 10 3e 50 31 41 be d6 5a b5 bd
       0.0049870345 0.1406533 -0.18866467 -0.08855216
000120 96 3d a5 3d 4b 24 96 bd 83 40 6b 3d 99 ac bf bc
       0.08068387 -0.07331141 0.05743457 -0.02339773
000130 f2 77 3d 3d 66 b9 d2 be f0 bf ca bd 2f 5e 9e bd
       0.046256967 -0.41157073 -0.098998904 -0.07732808
000140 20 8e 8b bc 1a a1 22 be a7 b7 2c 3c ca 2c d3 bc
       -0.017035544 -0.15881768 0.010541833 -0.025778193
000150 f1 39 45 bc 3d 45 fb 3d ad f3 d4 3a 4f 4d 1c 3d
       -0.01203774 0.122690655 0.0016246937 0.038159665
000160 ee 44 87 be 95 07 96 be aa 96 36 3d 8a 44 f5 be
       -0.26419777 -0.2930266 0.04457728 -0.47903854
000170 9e 6a f8 3d 5c 40 77 be 8d 70 ff bd 6a e3 b4 3d
       0.121297106 -0.24145645 -0.12472639 0.08832438
000180 52 47 92 be 63 b0 2a be 85 00 b2 bb 42 c8 92 bd
       -0.28570038 -0.16668849 -0.005432191 -0.071671024
000190 ec 95 dd bc 58 da 1c bd 4f 77 5e be d7 7a 04 bd
       -0.027049027 -0.038294166 -0.217252 -0.03234371
0001a0 4e 8d 0c 3e 1f a4 84 3c 5f a6 0e 3d 90 42 3b 3d
       0.13725778 0.01619154 0.034826633 0.045717776
0001b0 c8 2b 66 3d 38 16 96 bc 15 b9 b4 3d 28 85 52 3d
       0.056194097 -0.018321142 0.08824364 0.05139652
0001c0 e0 ed 51 be 0d 6a 34 bd 7a b6 5f 3d 67 14 60 bc
       -0.20500898 -0.04404645 0.054617383 -0.013676739
0001d0 48 09 dc bc be 19 da 3d 36 70 9e 3d 5a 58 73 bc
       -0.026859894 0.10649441 0.07736246 -0.014852608
0001e0 e2 50 08 be 1a d3 f3 bb 41 29 a3 3d 75 9a 53 3d
       -0.13312104 -0.0074409368 0.07966853 0.051660974
0001f0 b9 fb 2d be d2 d0 ad 3d 45 0b 8a 3d f2 69 5c be
       -0.16990556 0.08487095 0.06740431 -0.2152479
