experiments/2022-6-29_linear/save/linear_bin_class10000.pth (torch, 49299 bytes, 5 tensors)

fc1.weight f4 [64, 51]
00000000: 7f7f b53d de06 ca3c 7860 f13f d8a1 c13d
00000010: 0224 93bd 6f7f 9f3f 0c7e c3bd c846 14bb
00000020: 1e23 e33f 7cbf cabd 3a03 903d 0854 b53e
00000030: c185 dd3d 051d 66bd 9e1d 2f3e e0f3 8dbc
00000040: de07 f23d ad9c edbe bc81 55bd 5edb 483d
00000050: 0933 2ebf fe9d 79bd c741 a1bd 4ace b5bd
00000060: 414a 8cbd bf5f 42bd 2091 adbe 881c 6fbe
00000070: e36d 033e d085 b73f 48e3 7e3e f38c 443c
00000080: 1bb4 0440 7b55 543d a66c d6bd ec5a 00bf
00000090: 242c 443d 323d 7c3d f212 44bf 7241 19be
000000a0: 792c 01bc 8ab3 96be dc91 1f3e 5b52 ca3d
000000b0: 2eb6 c3be b268 68be 1015 233c cb98 28be
000000c0: e960 323e a29f 23be 287f 12bf d94e 82bd
000000d0: 24a0 b0bd c02e 623e 4716 fe3c 3fb6 313d
000000e0: 3565 163e 91ee 5fbc 240d de3d 1372 a3bb
000000f0: 7305 eb3a 7ffa b0bd 1d20 063e 264c 70bd
00000100: 4901 573d 2013 e73a d316 e03d 0b38 7abd
00000110: 38e5 79bd e59a c0bd 6719 173e 649b 933d
00000120: 9a34 053e 3cde c7bd 5093 e2bd 2e49 fdbd
00000130: b5a5 a2bd f546 dd3d 8c96 463d 1364 0c3e
00000140: e269 83bc df9d ebbd b62b c63d df92 223d
00000150: 78c2 a03d a1f1 9dbc 1322 c43d fc86 f2bd
00000160: 27be 66bd bf52 583d 27ee c13c 64ae d7bc
00000170: 60f0 d63d 2cdc ab3d 8d91 b9bd 37dd 4fbd
00000180: 0941 013e 3df7 2dbd d34c f2bc 6bef 14be
00000190: 597a 98bd 4fc7 7f3d 1f69 97bc ed2a d0bd
000001a0: 5842 573b 6fe4 c3bd 0c4d f3bd e7ea 9dbd
000001b0: b4fd fabd 219a b6bd 2655 0f3e 07a9 d83c
000001c0: 18bf 303d 83bc 05be 0e59 bcbd 3ae9 3ebd
000001d0: f25f b33c 6e57 fcbd 1821 77bd 42af abbd
000001e0: b373 cb39 ec6b 55bd cbfa 1ebc 3154 c2bd
000001f0: b5d7 c4bd 734e a7bd 8a53 44bd 1059 e2bd
00000200: 4674 f03d f4a8 e3bc 09be f63d 9ab5 323d
00000210: 9cd7 f2bd c575 c63d 84cf 1dbd c5db 5bbd
00000220: a20b eebd 288d 0ebe a119 243d 3c94 fabc
00000230: 524c 5f3d 0459 ebbd 71e9 d43d 8f82 d2bd
00000240: 4313 c6bc ae98 ef3c a10c 943d b284 e73d
00000250: 0a9f 023e 6364 e3bd 4f58 103d 66b3 76bd
00000260: 5b69 7bbc f4d5 fabd 906f a93d 70d2 febd
00000270: ad9a 633d 5a43 273c 1ced 103d aad0 bdbd
00000280: aac8 ba3d 0a90 973c 3209 2b3a 70da 25be
00000290: 0c95 f83c d856 20bd db21 cfbd e94b d53d
000002a0: 885a 633c f0cb ebbd 4413 bfbd 328c cbbc
000002b0: c59b 283d 0590 65bd 62aa c9bd 2aa5 aabd
000002c0: b725 f8bd 85eb fa3c 7f94 963d 3b58 13be
000002d0: 8c3c 4e3c cea0 0b3d 681a 77ba caa6 8bbd
000002e0: e220 143d 02be 5c3d 38ad 0e3d ed3b 66bd
000002f0: 25d5 70bd 7a71 52bb 60ed 65bd d26a 7bbd
00000300: 2df8 8f3d 8122 bb3d 8e90 3abd 38c2 4bbd
00000310: f2f2 d5bc 9dee e8bc b37c 3e3c c142 463c
00000320: 43a3 14be d421 8ebd 5a4c bf3d c7e4 2e3d
00000330: c037 e4bb 55e6 acbd ad73 afbd 5e71 00be
00000340: 11f5 3abd 1cb1 413d ffda b63d 8467 843d
00000350: c27e fdbd 0875 acbd 7108 b5bc fdb4 0a3e
00000360: 20f0 a53c ad88 14bd d149 6d3d d874 5abd
00000370: 479e b9bd ae50 d13d ef65 82bd 13f5 e5bc
00000380: c8a4 0ebe 82ee bf3d c145 d93d ef07 513d
00000390: 64f6 c7bd 1a84 0dbe 20ea e8bd 97d9 d53d
000003a0: f8ae 893d 0e53 f13d e93b 963d 8729 113d
000003b0: 86bb b3ba 8e18 dabd f0b3 f5bd 501e 06be
000003c0: 9fca 6a3d 6bcc 8cbd d7db e6bc b90a a5bd
000003d0: c707 d1bc 0bd8 c9bd 8462 bbbd 1b41 3e3d
000003e0: 5a75 2abd 410a b13d 5b00 38bd d85e d2bd
000003f0: 1065 cabc bc03 8bbd 6879 2fbd 6281 08be
0.088622086 0.024661478 1.8857565 0.09454697 -0.07184602 1.2460765 -0.09545526 -0.0022625197
1.7745092 -0.09899804 0.070318654 0.35415673 0.10816527 -0.05618002 0.17101142 -0.017328203
0.11817907 -0.46408597 -0.052125677 0.04903733 -0.68046623 -0.06094169 -0.07873874 -0.08877237
-0.068501 -0.04745459 -0.33899784 -0.23350728 0.12834887 1.4337711 0.24891388 0.011996496
2.0734928 0.051839333 -0.10469942 -0.50138736 0.04789366 0.061581798 -0.7659141 -0.14966372
-0.007884138 -0.29433852 0.15582985 0.09878989 -0.3822493 -0.22696188 0.009953752 -0.16464536
0.17419781 -0.15978864 -0.57225275 -0.06362695 -0.086242944 0.22088146 0.031016482 0.043386694
0.14687045 -0.0136677185 0.1084235 -0.004987964 0.0017930701 -0.08641528 0.13098188 -0.05866637
0.05249146 0.0017629601 0.109418534 -0.061088603 -0.061009616 -0.09404544 0.14755784 0.07207373
0.13008347 -0.09759185 -0.11063254 -0.123674735 -0.07941762 0.108045496 0.048483416 0.1371005
-0.0160417 -0.11504721 0.09676306 0.03969085 0.07849592 -0.019280257 0.09576812 -0.118421525
-0.056333687 0.052813288 0.02367313 -0.026328273 0.10495067 0.08391604 -0.09060965 -0.050748076
0.12622465 -0.042472113 -0.029577648 -0.14544456 -0.07445211 0.062445935 -0.018482743 -0.101644374
0.003284594 -0.095650546 -0.1187993 -0.0771082 -0.12255421 -0.089161165 0.13997325 0.026447786
0.04315099 -0.13060193 -0.09196673 -0.04660914 0.021896336 -0.123213634 -0.060334295 -0.08383037
0.0003880538 -0.052104875 -0.009703348 -0.094887145 -0.09611455 -0.0816926 -0.04793123 -0.110521436
0.117409274 -0.027790524 0.12047965 0.04363022 -0.118575305 0.096904315 -0.03852798 -0.053676385
-0.116233125 -0.13921034 0.040063504 -0.030588262 0.054516144 -0.11491588 0.10396088 -0.10278808
-0.024179107 0.029247608 0.07228971 0.113046065 0.12755981 -0.111031316 0.035240468 -0.06022968
-0.015344943 -0.122478396 0.08273232 -0.124424815 0.055567432 0.010208929 0.035382375 -0.09268315
0.09120305 0.0185013 0.00065245025 -0.16196609 0.030344509 -0.03914532 -0.10113879 0.10414869
0.013876565 -0.11513507 -0.093298465 -0.024847124 0.04116418 -0.05604555 -0.09846951 -0.08332284
-0.121165685 0.030629883 0.07352542 -0.14389126 0.012587678 0.034088902 -0.0009426237 -0.06818922
0.036164172 0.053892143 0.034833163 -0.056209493 -0.05879702 -0.0032111094 -0.05613458 -0.06138117
0.07029758 0.091374405 -0.045548014 -0.04974577 -0.026116822 -0.028434092 0.01162641 0.012100876
-0.14515404 -0.06940046 0.09340735 0.042698648 -0.0069646537 -0.0844237 -0.08566985 -0.12543246
-0.04564387 0.047288045 0.08928489 0.064650565 -0.12377693 -0.084207594 -0.022098752 0.13545604
0.020256102 -0.036263157 0.057931725 -0.053334087 -0.09063392 0.102204666 -0.063670985 -0.028070962
-0.13930047 0.09371664 0.106090076 0.051032957 -0.09763792 -0.13819924 -0.11372781 0.104418926
0.06722826 0.117834195 0.07335646 0.035439994 -0.0013712503 -0.10649215 -0.11997211 -0.13097501
0.05732214 -0.06874927 -0.028181 -0.08058686 -0.025516404 -0.0985566 -0.0914965 0.04644881
-0.04161582 0.08644534 -0.044922214 -0.10271996 -0.024706393 -0.06787822 -0.04284039 -0.13330606

fc1.bias f4 [64]
00000000: 0afc 16bf bd35 9fbd f0dc 9a3e 4145 22bc
00000010: 1c70 23bd 6628 dd3e ddd1 16be 2218 a13e
00000020: 1e65 bebd ac8d 37bd 2630 36be c7cf dfbd
00000030: 68a9 01be 52e5 0dbb ab10 7dbd 5672 063e
00000040: 8a7e e6bd ac76 09be bf28 823e a75a 0e3e
00000050: a514 6bbd 2f6a 4c3e a2a9 34ba 0d40 013e
00000060: 759e afba 1203 cd3c 3100 80bd 43fa 20bd
00000070: 6203 2abb 9568 173e 2dd8 5cbc 21bd 163e
00000080: fa79 bcbd 953b 65ba 4563 8abd 79b5 cebd
00000090: 5f0c 8dbd 2ff2 02be 2682 803e 8f13 aabd
000000a0: 28d7 6fbd 21f1 43bd 35b9 c6bd e13c 513e
000000b0: 2895 91bc 2864 9d3e d2fe b03e 969a 8fbd
000000c0: 2316 34be b63c ccbc 3ee8 98bd b90e 82bd
000000d0: 1d86 b0b9 1f62 14be 65df 24bd 3be9 96bd
000000e0: c3e6 123e 1359 1cbc 0367 0dbe 3863 21bd
000000f0: c4eb 52bd fe51 83bd bdd5 3dbe 3a10 0bbe
-0.5897833 -0.07773922 0.30246687 -0.009904207 -0.039901838 0.43194884 -0.14728494 0.31463724
-0.0929663 -0.044812843 -0.17791805 -0.10928302 -0.1266228 -0.0021651578 -0.061783474 0.13129553
-0.11254604 -0.13424176 0.25421712 0.13901769 -0.057392735 0.19962381 -0.00068917323 0.1262209
-0.0013398664 0.025025878 -0.062500365 -0.03930117 -0.0025941958 0.14785989 -0.013479275 0.14720584
-0.09202953 -0.0008744535 -0.067572154 -0.10093207 -0.06887125 -0.12787698 0.25099295 -0.08304512
-0.0585548 -0.04783738 -0.09703294 0.2043338 -0.017771319 0.30740476 0.34569412 -0.07011907
-0.1758657 -0.024931293 -0.07466172 -0.063504644 -0.00033669258 -0.14490555 -0.040252108 -0.07368704
0.14345841 -0.009542721 -0.13808827 -0.039401263 -0.051494375 -0.06412123 -0.18538566 -0.13580409

fc2.weight f4 [128, 64]
00000000: bad4 2cba b0e9 e1bd 3817 e53d 53cd d6bd
00000010: b870 f8bc 5105 02bd dc2e 82bd a55b 103d
00000020: 5c7c 673d 634f a7bd 1e18 24bd 97db 803d
00000030: afdd 6ebc 8e8d dd3c 7d6f 803d 8af8 3ebd
00000040: 710d b9bd 6d46 243d 6109 a1bd 7b76 babd
00000050: 59b8 7cbd d1f1 30bd 1c1e 053e ce63 ef3c
00000060: 317d 993d 106f b53c 713b abbd 44bd b83d
00000070: 1b80 d2bc 93ac 04bd 6954 c43d df12 8abd
00000080: a0c1 073d a2bd dcbd 062f c13c e7d8 5b3d
00000090: 169c c2bd 57ea 643d 7634 9f3c 7e30 84bd
000000a0: 71a3 dd3d a32e 423d b8ee 263d ec84 7fbd
000000b0: ba5e 8cbd e7fe 9bbd 0374 d73b 45de e83c
000000c0: 9c73 4ebd a2ac e33d 3488 8b3c 4c7c 43bd
000000d0: ea7b 9c3d 5fc8 61bd 25d4 1a3c 651a d33d
000000e0: ffcd d0bd 83a6 74bd ae07 cebb c378 783c
000000f0: ca14 c7bd 9779 90bd 8956 42bc 4487 a9bc
00000100: 5d4a db3c 249a b23c 3165 5ebe 238c 543c
00000110: 3064 6b3c 06d4 88be 6c1b fe3c 89c7 17be
00000120: 5384 ccbd b910 85bd 6ad6 343d cdd5 b4bd
00000130: c67a 963d aaf8 5b3d 17ee d93c 0148 6cbd
00000140: 9377 c8bc d69b f2bd 2571 acbe b821 e13d
00000150: 338f f1bd 80dc ebbd 40bb 2abd 6c1a 9d3c
00000160: 8da8 113d ae08 5ebd af26 49bc 50ab e4bc
00000170: 775a e13d eb27 d53d fc08 6b3d bbed b33a
00000180: 5ced cf3d 403d c1bd 3e32 f33c 05d5 9bbd
00000190: 5306 ca3d 5854 19be 7a6f fd3c 9e7a d2bd
000001a0: 082b 923d 9f32 123d 51ba c53d 0327 dabd
000001b0: 90c3 a43d ad4b a5be d04f 92be 1e10 183d
000001c0: db7b e23b 8b36 cfbd 8b14 c8bd 94ed 04bd
000001d0: 07e9 8f3c fcf3 bd3d 8d3f cb3d b8fc c33b
000001e0: 5b99 a3bd c156 d8bd 2ea6 e93d f36e 9fbd
000001f0: 9c68 ebbc e0f2 e7bd ffa9 c5bd c6f9 bc3c
00000200: 441b a1bc ecf7 293c d37a 7fbe 3be9 4d3b
00000210: 68e6 cabc d27a 89be c6be 2a3d c40e 3dbe
00000220: 80f4 ad3d 3372 e9bd 41f8 d7bd cbf9 62bc
00000230: 77c9 0fbc 5c32 843d 7b1b f73d 3232 e63c
00000240: 5c9e d5bd 9524 03bc e790 eabd 7fd4 373c
00000250: d8b5 ccbd 6276 debd 5b17 ffbd 8d70 52bd
00000260: c8e5 b73d 4582 61bd adb9 8a3d 08d0 d0bd
00000270: cee7 ed3d 7739 573d 9530 b23d 4cac 143d
00000280: fe52 883c 7225 7ebd b4a7 bdbd 772d b8bd
00000290: bd84 c23d 2013 63bd afc1 44bc d8aa f0bd
000002a0: 6c41 e73c ae15 2ebd 2444 cdbd 638e d53b
000002b0: b4d4 ebbd 6dd2 78be 0538 90be cd83 9c3d
000002c0: 9aee e6bd aba7 ab3c 97e8 a1bb 288c ccbd
000002d0: ce75 8c3d 9802 b23d 3f29 a8bd 3755 393c
000002e0: f5d7 c53c 8249 cc3d ceef c83d b08e e5bd
000002f0: b064 e2bd b719 02be e536 75bd c702 f9bc
00000300: e9bb 8fbd 4339 773d 398b 123d ee85 c9bd
00000310: 941e c8bd 9c3b eb3d 41f4 003e c9d3 433e
00000320: 9df4 1dbd ebf6 1fbd 1e22 e3bd 53fb 4abd
00000330: 941b 8e3d ecfb 953d 8b22 a73d ae15 ee3b
00000340: 894b a4bd 7694 9bbd 1ed6 8a3e 12fa d7bd
00000350: a772 af3c 1b4a 283d 1e0d db3d 04a5 733d
00000360: 6f95 44bd d9d9 eabd 8e0a 213c 820e b3bd
00000370: d71a 9abc efe5 f93c ec6c 613d 381c 2cbd
00000380: e1c0 bcbd 2597 e5bd 687f e2bd b75d 9d3c
00000390: 2f7e c0bd 7ce9 093d 6741 58bd 1e3e adbd
000003a0: 765a a43d 8d69 683d b5ca 983d 9e82 163e
000003b0: d839 b9bd b2b7 723d 3efd 693d b119 463d
000003c0: 37d8 383d c75b c63d 4583 b4bd 564a 89bd
000003d0: 1fdc 043e 848a c9bd 56ac b9bd 695b 303d
000003e0: 48d4 cfbd 00cb 43bd 92e0 4e3d 62bc ce3d
000003f0: e911 a7bc 81a4 d7bd de0d 4f3d 5dbb f33d
-0.0006592978 -0.110309005 0.11186069 -0.10488381 -0.030327186 -0.03174335 -0.06356594 0.03524365
0.056515083 -0.08169439 -0.040062062 0.062918834 -0.014579221 0.027045038 0.06271265 -0.046623744
-0.09035767 0.040106226 -0.07863117 -0.091046296 -0.061699245 -0.043199364 0.12999767 0.029222395
0.074945815 0.022147685 -0.08360947 0.090204746 -0.025695851 -0.032391142 0.095864125 -0.067418806
0.03314364 -0.10778357 0.023581993 0.05367365 -0.09502427 0.055887546 0.019434195 -0.06454562
0.108221896 0.047407757 0.040755004 -0.062382624 -0.06854005 -0.07616978 0.006575109 0.028426299
-0.050403222 0.111169115 0.01703272 -0.04772596 0.07640822 -0.05512273 0.009449993 0.10307769
-0.10195541 -0.05972911 -0.0062875366 0.015165511 -0.09720762 -0.070544414 -0.011861452 -0.020694382
0.026768858 0.021802016 -0.21718289 0.012972864 0.014367148 -0.2672426 0.031018935 -0.1482221
-0.09986176 -0.0649733 0.044149794 -0.08829842 0.07347636 0.05370394 0.026602788 -0.057685856
-0.02447108 -0.118461296 -0.33680072 0.109927595 -0.11794891 -0.115166664 -0.04168248 0.019177638
0.035561133 -0.054207496 -0.012277289 -0.02791372 0.11003583 0.104080044 0.057381615 0.0013727465
0.101526946 -0.09435511 0.029687043 -0.076089896 0.098644875 -0.14973581 0.030936945 -0.102772936
0.07137114 0.035692807 0.09654678 -0.10651972 0.08045113 -0.322843 -0.28576517 0.037124746
0.0069117374 -0.10117825 -0.09769543 -0.032453135 0.01756717 0.09275052 0.09924231 0.005981054
-0.079882346 -0.10563422 0.114086494 -0.07784834 -0.028736405 -0.113256216 -0.09651565 0.02306832
-0.019666322 0.010374051 -0.24949197 0.0031419534 -0.02476807 -0.26851517 0.041685842 -0.18462664
0.084939 -0.11398735 -0.105453975 -0.013853501 -0.00877606 0.06454918 0.12065788 0.028100107
-0.10430595 -0.008004327 -0.11453419 0.011220097 -0.099956214 -0.108624235 -0.124556266 -0.051376868
0.08979374 -0.055055875 0.06773696 -0.10195929 0.11616479 0.052545037 0.087006725 0.036297128
0.016641136 -0.06204743 -0.092605025 -0.08993047 0.09497974 -0.05543816 -0.012009068 -0.11751336
0.028229438 -0.042501144 -0.100227624 0.006517218 -0.11515179 -0.24299021 -0.2816774 0.076423265
-0.112759784 0.020953974 -0.004941057 -0.0998767 0.06858407 0.08691901 -0.08210992 0.011311821
0.024150828 0.09974958 0.09811364 -0.11208856 -0.11054361 -0.12705122 -0.059866805 -0.030396832
-0.07018263 0.060357343 0.035777304 -0.09839998 -0.09771457 0.11485979 0.12593175 0.19123758
-0.03856336 -0.03905384 -0.11090492 -0.049556088 0.06938854 0.07323441 0.081608854 0.007265768
-0.0802222 -0.07596676 0.27116483 -0.10545744 0.021416975 0.041086297 0.10695861 0.059483543
-0.047994073 -0.114673324 0.009829177 -0.087430015 -0.018811626 0.030505149 0.055035517 -0.0420191
-0.09216476 -0.11210469 -0.11059457 0.019209726 -0.093990676 0.033669934 -0.052796748 -0.084591135
0.080250666 0.056741286 0.07460538 0.14698264 -0.09044236 0.059257217 0.057126276 0.048364345
0.045128074 0.09685474 -0.088141 -0.067036316 0.12974595 -0.09840873 -0.090660736 0.043055926
-0.10147911 -0.047801018 0.050507136 0.10094525 -0.020394282 -0.105294235 0.050550334 0.11900971

fc2.bias f4 [128]
00000000: ff79 debd e36c c8be 9d85 403e ff0e 09be
00000010: 71ef babd ae20 743e 851e ae3e 2060 84bc
00000020: 8a1d be3d f9eb e4bd bf88 fdba 1c24 a5bc
00000030: aa90 b43e b558 3fbc 0f98 88bd 5996 4dbd
00000040: 73c1 90bc d20f b0bd 9e1c ad3c 8660 6f3e
00000050: f87e 03be 2570 6abc d1c6 793e f757 debd
00000060: 4197 8fbc f8c0 023e 1d62 5fbe a545 f7bd
00000070: 8ef9 5fbc 8ed1 0cbd db41 9bbe 653a 64be
00000080: 92c1 8dbd fb86 93bb e779 5bbc c7ad 7b3a
00000090: ba79 52bc 293a 4e3e b84f 9abe c64b 1d3d
000000a0: 5310 23bc fd9e 803c 538a c5bc d90f 23be
000000b0: 0f06 ee3e 0eec 12be bf37 5bbe f541 c43d
000000c0: a4c3 61bd be58 3ebe bbf6 60be 1e12 8fbc
000000d0: 555c 3cbe f939 e0be 47c3 47bc c1d5 193e
000000e0: 3470 ae3e 32b0 0abc e5f0 92be 538c 25be
000000f0: 5a66 143f fa40 f0bb 4e82 983e f094 a1bb
00000100: 0b76 61bc 6f94 68be c1ae 45bd 0dc6 3cbe
00000110: 235c 8f3e 4cee 38bd 0458 aebd b9de acbe
00000120: 9a23 1cbc 57c5 b0bd 518e 09be ae7a 4ebe
00000130: c694 0b3d 03ea 3e3e e6b0 383e 0f34 783e
00000140: 6406 28bb 5814 16be 6001 4cbd 46e6 0fbd
00000150: 5c47 dbbb 3b66 34bd 6cc4 393d 4dcc 98bd
00000160: e315 d13e d70e b33e 9a48 55bc 57cb eb3c
00000170: 59dd 09bd 622d 18be fbfd 35be 4d58 02bb
00000180: 627e 3ebb 95e6 83bd f645 c4bc a6a2 d2bd
00000190: 0109 733e 83ec 04bc 5d2c 48be 1dde 62be
000001a0: 1707 16bc 1f08 e23c 5d59 27be 8380 0fbd
000001b0: f8da 17ba 67df 873d 7dde 24bc 15da 6abe
000001c0: 5693 143e 78bf bebe a860 15bc a3cf afbe
000001d0: eea9 02bc e89e 363d 2ed0 8fbd d5f9 d7bb
000001e0: daf7 143d 6d74 f93e 6bbc 46be d5b6 09bf
000001f0: 5989 2a3d c112 1fbd 7df4 febd dcc6 003e
-0.10863113 -0.39145574 0.1880097 -0.13384627 -0.09127701 0.23840591 0.3400766 -0.016159117
0.09282978 -0.11177821 -0.0019343122 -0.02015882 0.3526662 -0.011678864 -0.06669628 -0.05019221
-0.017670369 -0.085967675 0.02113181 0.23376665 -0.12841403 -0.014308964 0.24392249 -0.10856622
-0.017528178 0.12768924 -0.21814771 -0.120738305 -0.013670338 -0.034379534 -0.3032368 -0.22287901
-0.06921686 -0.004502175 -0.013395763 0.0009600785 -0.012846405 0.20139374 -0.30138946 0.03840234
-0.0099526225 0.015700812 -0.02411381 -0.15924014 0.46488997 -0.1434786 -0.21407984 0.09582893
-0.055118218 -0.1858854 -0.2196912 -0.017464694 -0.18394597 -0.4379423 -0.012192554 0.15022947
0.3406998 -0.00846486 -0.28699413 -0.1616681 0.57968676 -0.0073319646 0.29786915 -0.004931085
-0.013761054 -0.22712873 -0.04826236 -0.18434925 0.27999982 -0.045149133 -0.085128814 -0.33763674
-0.009529972 -0.086313896 -0.13433196 -0.20163986 0.03407743 0.18643956 0.18036231 0.24238609
-0.0025638575 -0.14656198 -0.049806 -0.035131715 -0.0066918563 -0.044042807 0.045353338 -0.07460842
0.4083701 0.3497226 -0.013017798 0.028783483 -0.03365836 -0.14861062 -0.17772667 -0.0019889057
-0.002906703 -0.064404644 -0.023959141 -0.10284929 0.23733903 -0.008113029 -0.19548173 -0.22155042
-0.009156964 0.027591763 -0.16342683 -0.035034668 -0.0005792822 0.066344075 -0.010062811 -0.22934754
0.14509329 -0.37255454 -0.009117283 -0.34338102 -0.007975085 0.04458514 -0.07022129 -0.0065910616
0.036369182 0.48721638 -0.19407813 -0.53794605 0.04163489 -0.038836244 -0.12448976 0.12575859

out.weight f4 [1, 128]
00000000: d725 9338 ed63 f0bc 957f d2ba cb80 a63c
00000010: abc5 5fbd 919e 6abd 2779 a3bd ec16 6d3c
00000020: 8945 9b3a d48d 21bd d8f0 893d 88d7 313b
00000030: 0d89 9cbd f6e8 b53c 786f c2bb 421f 093a
00000040: a42e 603d 45f2 91ba ebad b33b 1a97 d8bc
00000050: 4530 0c3d f60e 233c bff1 48bc 01e3 65bd
00000060: 587c 033c 3328 16bd cf32 3ebd 1db6 73bd
00000070: a352 ae3c 84ba d63c b85f 12bd cc74 9dbd
00000080: 40a5 763d c7de c03a a4d8 7f3d 957d 2a38
00000090: faf9 403d 966f f2bc 4542 3bbd df36 233d
000000a0: 5e8e 8f3c f031 c73b 399a 6c3a 5b1f 82bd
000000b0: 9ca2 86bd 2e6e d4bc 512c c8bc fa7b c9bb
000000c0: 67cb 443d eecd 50bd 89f5 833a 6e74 7d3c
000000d0: 319e 2f3b 1ad8 c6bc ebe9 b23c 081e 17bd
000000e0: e1aa c4bd 0ac0 333c 5180 52bd 9eb1 8fbd
000000f0: 96f1 b1bd 8132 5e3d c78a 4ebd 49cb 833d
00000100: e7ba 0a3c 3e34 7cba 4c6d ccbc 7220 9ebd
00000110: 3eae 8dbd 9fed 063d 815c 55bd d6c5 ebbc
00000120: cd45 5b3b b125 a7ba d76b 8aba b4b1 1cbd
00000130: 31e5 4b3d 715a 6cbd faa2 e2bc d7c1 81bd
00000140: 2960 2d3d addb 0cbd 3ad5 e6ba 31b8 bb3c
00000150: 9125 103c caf8 053c 9322 4cb9 cee9 36b8
00000160: d089 78bd b724 afbd be51 123c 552a 673b
00000170: 5bd5 093b 9da4 95bd 3b29 133b 5721 3b3c
00000180: 1efd 3c3d ed62 a0ba 318a b637 0357 4fbd
00000190: 41f1 d9bc c868 713d 4b62 8abd 8c30 81bc
000001a0: db53 7d3d 7ff3 9b3c cbd8 78bc 3399 7e3a
000001b0: 4bca 8ab9 e2cb d03a 1981 483d d32f abba
000001c0: d200 04bd 4f95 96bc 99e8 9f3a 3042 d7bc
000001d0: 5dcf 2d3d 913b fe3c 2ec3 b73a d9ad 033d
000001e0: 8de6 7b3d 2b1a d4bd 1bd5 1cbc 59dd 36bd
000001f0: 1048 193d 4616 66ba 5c3e 7438 5de4 0d3b
7.0165544e-05 -0.029344523 -0.0016059751 0.020325085 -0.05463187 -0.057280127 -0.07982092 0.014470797
0.0011846285 -0.0394419 0.067353904 0.0027136523 -0.07643328 0.022205811 -0.0059336983 0.0005230793
0.05473198 -0.0011134824 0.005483379 -0.026439238 0.03422572 0.009952297 -0.012264668 -0.05612469
0.008025251 -0.03665943 -0.046435174 -0.05949985 0.021279639 0.026211984 -0.035735816 -0.07688293
0.06021619 0.001471483 0.062462464 4.0648116e-05 0.047113396 -0.029594224 -0.045717496 0.03984725
0.01752394 0.006078951 0.00090256665 -0.06353637 -0.06573984 -0.025931444 -0.024435194 -0.0061488124
0.048045542 -0.05097764 0.0010067682 0.0154696535 0.002679717 -0.024272967 0.021840056 -0.036893874
-0.09602905 0.010971079 -0.051391903 -0.070163 -0.08688657 0.054247383 -0.050425317 0.06435258
0.008467413 -0.0009620822 -0.02495446 -0.07721032 -0.06918 0.032941457 -0.05209017 -0.028780859
0.0033458353 -0.0012752322 -0.0010560703 -0.03825541 0.04977912 -0.05770344 -0.027665604 -0.063358
0.042328034 -0.034389187 -0.0017611154 0.022914978 0.008798019 0.008176992 -0.00019467836 -4.360993e-05
-0.060678303 -0.08551925 0.008930622 0.0035273035 0.002103171 -0.07306788 0.0022454995 0.011421523
0.04613983 -0.0012236513 2.1760441e-05 -0.05062009 -0.026604297 0.058937818 -0.06757029 -0.01577022
0.06184755 0.019037006 -0.015188406 0.00097121595 -0.0002647213 0.0015929902 0.048951242 -0.0013060517
-0.032227345 -0.018381743 0.0012200057 -0.026276678 0.042434085 0.031034263 0.001401996 0.032148216
0.061499167 -0.10356554 -0.009572293 -0.044644687 0.03742224 -0.0008777123 5.823221e-05 0.0021651008
