experiments/2022-6-29_linear/save/linear_bin_class20000.pth (torch, 49299 bytes, 5 tensors)

fc1.weight f4 [64, 51]
00000000: abfb 043d c7c2 993d 5da0 06bd dd73 5c3d
00000010: 39df 95bd 11f7 e63c eea6 11be 7a7e 233d
00000020: ecbb fc3d c56a 37be e666 a63d 6c48 d63c
00000030: ed32 f33c 9201 c2bc 8739 8a3d 7aa9 c4bd
00000040: 5368 853d 28e9 a83c f0bb 10be bb5d efbb
00000050: 5849 84bd 6539 bfbd c15b ccbd 7814 be3d
00000060: 5034 3ebe 7fff dcbd 8628 22bd 9080 24be
00000070: 28e2 f5bc 41b2 0dbe abd1 533d 57b2 27be
00000080: 2250 dd3d 1080 58bd 1eaa c0bd f213 b13d
00000090: e17e 5dbd c6ed 833d 3696 793c 7197 f3bd
000000a0: 2495 7cbc 5fca 1bbd 09bf 6dbc ad11 953d
000000b0: ec9a a53d 3940 0bbe 4cb9 c43c 9bb0 cc3c
000000c0: fb68 55bb aed9 12be 6805 0ebe 5299 5dbd
000000d0: fdf6 dbbd de4f eb3d a533 253d fb92 6d3d
000000e0: a264 353d 04a4 1fbb 316f e03d 5cc2 cbbd
000000f0: dc73 103c b1bc c3bd 54db 303d a885 45bd
00000100: 1bbf 2f3d 91fd eebc cfd9 ed3d 37f9 a9bd
00000110: 9008 abbd 350b abbd 4df8 003e 4423 3f3d
00000120: d2f9 093e aaab ecbd 4c39 0ebe 3e5d e0bd
00000130: 79e9 c0bd 0d50 683d 4960 4d3d 524a ee3d
00000140: 5f19 94bd e07f c3bd 6628 983d 5ad5 67bd
00000150: 510d ae3d db1a 08bd c10c a43d 1dd1 debd
00000160: deb8 90bd 03dd 2e3d f281 f23c 993b 12bd
00000170: 72f0 aa3d 33f4 c23d 9cf6 cfbd f019 99bd
00000180: aa4b 033e 3889 41bd a655 4bbd fcbd 0abe
00000190: 973a a4bd ad46 0f3d 1f69 97bc ed2a d0bd
000001a0: 5842 573b 6fe4 c3bd 0c4d f3bd e7ea 9dbd
000001b0: b4fd fabd 219a b6bd 2655 0f3e 07a9 d83c
000001c0: 18bf 303d 83bc 05be 0e59 bcbd 3ae9 3ebd
000001d0: f25f b33c 6e57 fcbd 1821 77bd 42af abbd
000001e0: b373 cb39 ec6b 55bd cbfa 1ebc 3154 c2bd
000001f0: b5d7 c4bd 734e a7bd 8a53 44bd 1059 e2bd
00000200: 4674 f03d f4a8 e3bc 09be f63d 9ab5 323d
00000210: 9cd7 f2bd c575 c63d 84cf 1dbd c5db 5bbd
00000220: a20b eebd 288d 0ebe a119 243d 3c94 fabc
00000230: 524c 5f3d 0459 ebbd 71e9 d43d 8f82 d2bd
00000240: 4313 c6bc ae98 ef3c a10c 943d b284 e73d
00000250: 0a9f 023e 6364 e3bd 4f58 103d 66b3 76bd
00000260: 5b69 7bbc b379 8ebd 4647 153e 276b d2bd
00000270: ce6c e33d 8535 8c3d 0083 3a3d 439b 2ebd
00000280: 8a1b 113e 3639 fc3c c31f 623d 8acf d8bd
00000290: a1d8 703d 2b7e 5b3c 3130 37bd eb55 f63d
000002a0: 4a57 8c3d 6486 74bd 9319 91bd 548c e83c
000002b0: 471b c63d b879 12bd f6e7 2abd 9cbc 00bd
000002c0: 882d d6bd f58f a83d a83c 013e 84fc 06be
000002d0: 0bd6 8f3d 54b1 b63d 545f d03c c4a8 95bc
000002e0: 17b2 bb3d 96bf 963d 091f b43d 2d7e c4bb
000002f0: efca 17bd a0f9 493d a5dc bcbb 8ad0 2abd
00000300: c9a4 fc3d ad31 0f3e 03df 62bc 0438 823a
00000310: 4914 a93c 697a 08bc 0e16 883d b385 723d
00000320: de36 02be 747a 93bc d490 0d3e d888 5f3d
00000330: c037 e4bb 55e6 acbd ad73 afbd 5e71 00be
00000340: 11f5 3abd 1cb1 413d ffda b63d 8467 843d
00000350: c27e fdbd 0875 acbd 7108 b5bc fdb4 0a3e
00000360: 20f0 a53c ad88 14bd d149 6d3d d874 5abd
00000370: 479e b9bd ae50 d13d ef65 82bd 13f5 e5bc
00000380: c8a4 0ebe 82ee bf3d c145 d93d ef07 513d
00000390: 64f6 c7bd 1a84 0dbe 20ea e8bd 97d9 d53d
000003a0: f8ae 893d 0e53 f13d e93b 963d 8729 113d
000003b0: 86bb b3ba 8e18 dabd f0b3 f5bd 501e 06be
000003c0: 9fca 6a3d 6bcc 8cbd d7db e6bc b90a a5bd
000003d0: c707 d1bc 0bd8 c9bd 8462 bbbd 1b41 3e3d
000003e0: 5a75 2abd 410a b13d 5b00 38bd d85e d2bd
000003f0: 1065 cabc bc03 8bbd 6879 2fbd 6281 08be
0.03246657 0.07507854 -0.032867778 0.053821433 -0.07317967 0.028193982 -0.14223835 0.03991554
0.12340531 -0.17911823 0.08125095 0.02615758 0.02968737 -0.02368239 0.06749254 -0.096026376
0.06514039 0.02061899 -0.14134192 -0.0073048747 -0.06459302 -0.09337119 -0.09978438 0.09281248
-0.18574643 -0.107909195 -0.039589427 -0.16064668 -0.030015066 -0.1383753 0.051713627 -0.16376625
0.108063 -0.052856505 -0.09407447 0.086463824 -0.05407608 0.06441836 0.015233567 -0.118941195
-0.015416417 -0.038034793 -0.014510878 0.07278762 0.0808619 -0.13598718 0.024014138 0.024986556
-0.0032563794 -0.1434085 -0.1386925 -0.054101296 -0.10740469 0.11489843 0.040332455 0.0580015
0.044285424 -0.0024359236 0.10958708 -0.099491805 0.0088166855 -0.095574744 0.043177918 -0.048223168
0.04290686 -0.029173644 0.11613809 -0.08299487 -0.083512425 -0.08351747 0.12594719 0.04666449
0.13474205 -0.1155618 -0.13889045 -0.109552845 -0.094195314 0.056716967 0.050140653 0.11635269
-0.07231402 -0.095458746 0.074295804 -0.056599952 0.08498634 -0.033228736 0.08010245 -0.10879729
-0.070665106 0.042691242 0.029602978 -0.035701368 0.083466426 0.095192336 -0.10154459 -0.0747565
0.12821832 -0.047250003 -0.049642228 -0.13549036 -0.080189876 0.03497951 -0.018482743 -0.101644374
0.003284594 -0.095650546 -0.1187993 -0.0771082 -0.12255421 -0.089161165 0.13997325 0.026447786
0.04315099 -0.13060193 -0.09196673 -0.04660914 0.021896336 -0.123213634 -0.060334295 -0.08383037
0.0003880538 -0.052104875 -0.009703348 -0.094887145 -0.09611455 -0.0816926 -0.04793123 -0.110521436
0.117409274 -0.027790524 0.12047965 0.04363022 -0.118575305 0.096904315 -0.03852798 -0.053676385
-0.116233125 -0.13921034 0.040063504 -0.030588262 0.054516144 -0.11491588 0.10396088 -0.10278808
-0.024179107 0.029247608 0.07228971 0.113046065 0.12755981 -0.111031316 0.035240468 -0.06022968
-0.015344943 -0.06956806 0.1457797 -0.10274344 0.11104737 0.068461455 0.045535088 -0.042628538
0.14170662 0.030788999 0.05520607 -0.1058646 0.058800343 0.01339678 -0.044723693 0.12028106
0.068525866 -0.059698477 -0.07084956 0.028387226 0.096731715 -0.03576061 -0.04172512 -0.031429872
-0.10457903 0.082305826 0.12620795 -0.13182265 0.07023247 0.089205414 0.025436081 -0.01826895
0.09164827 0.07360761 0.08794982 -0.0059964866 -0.037058767 0.049310327 -0.0057636076 -0.041702785
0.12336118 0.13983794 -0.013847115 0.0009934907 0.020639556 -0.008329966 0.066448316 0.059209537
-0.12716243 -0.018002726 0.13824779 0.054573864 -0.0069646537 -0.0844237 -0.08566985 -0.12543246
-0.04564387 0.047288045 0.08928489 0.064650565 -0.12377693 -0.084207594 -0.022098752 0.13545604
0.020256102 -0.036263157 0.057931725 -0.053334087 -0.09063392 0.102204666 -0.063670985 -0.028070962
-0.13930047 0.09371664 0.106090076 0.051032957 -0.09763792 -0.13819924 -0.11372781 0.104418926
0.06722826 0.117834195 0.07335646 0.035439994 -0.0013712503 -0.10649215 -0.11997211 -0.13097501
0.05732214 -0.06874927 -0.028181 -0.08058686 -0.025516404 -0.0985566 -0.0914965 0.04644881
-0.04161582 0.08644534 -0.044922214 -0.10271996 -0.024706393 -0.06787822 -0.04284039 -0.13330606

fc1.bias f4 [64]
00000000: b557 a2bd 5511 aebd b66e 663d 55b4 793d
00000010: 1c70 23bd ed7a 073e bc8f f7bd b15c 673d
00000020: a5af 9dbd b669 02bd 3b12 0abe d214 d6bd
00000030: e850 f3bd f715 d13d 77c6 57bd b883 be3d
00000040: 7755 9bbd 8498 0ebd b02d 203d b071 a23d
00000050: 1c58 1abd fdcd 9a3d def2 a13d 0491 363e
00000060: 3190 f13d 1c71 af3d 9f03 2dbd 43fa 20bd
00000070: f70f c53c a35b d03d adde f5bb 9bed b53d
00000080: df87 acbd f43f 293e 3bc1 8cbc 255a c5bd
00000090: 3349 8bbd f2f7 dabd e530 d43c 8f13 aabd
000000a0: 1a45 24bd e136 10bc 2ce0 aebd 5367 233d
000000b0: 2895 91bc 5ca6 073d ffb7 a33d a720 adbd
000000c0: 2ee6 9b3d 9845 43bb 21a6 a3bd b90e 82bd
000000d0: f9c7 5d3d 6e1d f73d 3bad 93bb 55c5 8ebd
000000e0: 08d2 983d 21b0 823d 6d64 0bbe 2dc5 cabc
000000f0: 2f7d 1bbd e5b2 74bd d1fb 9ebd 2cad e8bd
-0.07926885 -0.084993996 0.056257926 0.060962994 -0.039901838 0.13230486 -0.12087962 0.05648488
-0.07699517 -0.031839095 -0.13483517 -0.1045319 -0.11880666 0.102092676 -0.052679505 0.09302467
-0.075846605 -0.03481342 0.03910607 0.079318404 -0.037681684 0.075588204 0.07907651 0.17828757
0.117950805 0.08566496 -0.04223978 -0.03930117 0.024055464 0.10173728 -0.0075033517 0.0888321
-0.08424353 0.16528302 -0.017181983 -0.09636334 -0.06801071 -0.10691823 0.025902221 -0.08304512
-0.040104963 -0.008802147 -0.08538851 0.03989346 -0.017771319 0.033117637 0.07994079 -0.084534936
0.07612263 -0.002979612 -0.07990671 -0.063504644 0.054145787 0.1206616 -0.0045067347 -0.06971232
0.07461935 0.0638125 -0.13612528 -0.024752224 -0.03796118 -0.05974092 -0.07762874 -0.11361155

fc2.weight f4 [128, 64]
00000000: a8cc f93d 8ad5 e9bd 3ae2 ed3d 9466 cabd
00000010: b870 f8bc b937 52bd 2406 89bd d4d7 353d
00000020: 589f 923d 7001 a9bd 042e 6fbd 58ab 823d
00000030: e08d 77bc 570a ef3c 66b7 843d a08b 3fbd
00000040: aad5 8fbd d8e2 373d 5599 3bbd 4398 aabd
00000050: db2f 82bd f95b 6ebd 6937 fe3d 6dc6 b13c
00000060: 426a 593d a50d 853c f296 aebd 44bd b83d
00000070: 8877 9fbc 2b6b 08bd e199 d03d d5d5 82bd
00000080: 88ee cf3c 670f ddbd bdf0 813d 445f 4b3d
00000090: 19e9 d3bd 2ad6 8e3d fcf7 603c 7e30 84bd
000000a0: fea2 d93d a67e 573d d954 323d 3540 3ebd
000000b0: ba5e 8cbd 8cd1 89bd de04 403d 20cb 093d
000000c0: 7fd0 9abd 44f6 e73d 043f 943d 4c7c 43bd
000000d0: 275d 843d e931 63bd 3690 203d c413 d53d
000000e0: a608 e3bd 5b20 81bd 1d74 e7bb 13c7 963c
000000f0: c3bd d2bd d97e a8bd 138d 67bc 6163 94bc
00000100: e06b 043d 181e 823c 2000 d23c de07 3b3c
00000110: 3064 6b3c e212 edbb ecde 373d 21b2 ae3d
00000120: 9503 72bd 9864 81bd e37a 633d 4a1f b9bd
00000130: 185d a63d 36e4 833d b3f8 aa3c ddf8 52bd
00000140: 8b47 e73b 4298 c1bd a751 e6bd 2c11 f13d
00000150: d3e7 dfbd a970 d4bd 2366 3fbd 3ecf 913c
00000160: 4937 ff3c 23b0 74bd 9fd0 d9bb 50ab e4bc
00000170: 2230 d63d d019 e73d a5a6 523d 3733 91b8
00000180: a4fb bf3d 2170 bebd 0b44 633d 50cd 94bd
00000190: cc8c cf3d 341f e2bd 0d36 3e3d 9e7a d2bd
000001a0: 4f36 993d b9e1 e83c 6c76 e03d 6714 c1bd
000001b0: 90c3 a43d 62dc aabd 3236 8abd cdd7 443d
000001c0: 05af 8dbc cd9d c3bd c777 d4bd 94ed 04bd
000001d0: 4cbd 0d3d ee40 fa3d 4680 bc3d 8041 063b
000001e0: 3c49 9bbd 3376 ddbd d3b3 e43d 9ce0 8cbd
000001f0: 57ce b0bc 16e5 cdbd 940c 9bbd 3094 c93c
00000200: cfdf e9bc 4086 6a3c 5385 b8b9 d492 0c3c
00000210: 68e6 cabc 52fc 50bb cc8c 5e3d c063 bc3d
00000220: f1f1 db3d 837c cfbd def6 d7bd 780a 99bc
00000230: 203c 1cbc c4a5 943d 347f f33d c0e2 0c3d
00000240: 4b88 b3bd 1dd2 41bc 8052 a63d 5340 423d
00000250: 80fe b1bd c19f 083c 91d7 f4bd b53d 34bd
00000260: b7ae b73d 44f1 54bd 17a8 a13d 08d0 d0bd
00000270: 615c e33d f092 7f3d a4f2 a53d d64c 113d
00000280: 1018 113c 73d2 69bd 7a97 8bbd d8cc afbd
00000290: abb4 d63d 3898 31bd 7543 5f3b d8aa f0bd
000002a0: 722e 0c3d 0d50 24bd 08a5 cabd 4813 813c
000002b0: b4d4 ebbd a280 41bc 699c cebd 1810 a23d
000002c0: 44df c6bd ac9a af3c a15c 803d 288c ccbd
000002d0: 08e8 a63d ee70 dc3d 50d0 9cbd 407e 2b3c
000002e0: 48e2 203d 40f3 da3d 70ff c73d f8f0 d5bd
000002f0: dd41 d0bd a323 e2bd 7aed 50bd 1554 cebc
00000300: 31e0 5bbd 28af a83d ef8e b0bd f23e dabd
00000310: 941e c8bd 0d76 97bd 32be fa3d 1dbb 803c
00000320: 9867 e7bc 40d5 22bd c408 c5bd 44b6 2dbd
00000330: f6dd 863d 7f96 953d a94f ae3d 645c 593b
00000340: 18a1 94bd 3927 a6bd e6b6 f83d 9462 e7bd
00000350: a874 c23c 612b 43bc e7c3 e63d 823a 5f3d
00000360: d9e3 10bd 9026 debd 2237 c03b 820e b3bd
00000370: fbd7 58bc 217a c23c 191c 793d a595 12bd
00000380: 00cf acbd 566a f1bd 3ca0 fbbd 7871 803c
00000390: 2792 abbd 7f77 923b e6b7 72bd 1e3e adbd
000003a0: c25b a33d cfb1 793d db93 a93d 1982 f53d
000003b0: d839 b9bd de61 88bd c0fc c0bd 5587 a93d
000003c0: caea 893d 3f19 c03d 9a0c bbbd 564a 89bd
000003d0: 4971 f93d 6c17 f7bd f414 abbd 407e 3c3d
000003e0: ce2f e5bd 1207 33bd acaa 593d fa21 d03d
000003f0: 43d9 7abc a4aa e3bd 9fbc 593d 15e6 fe3d
0.12197238 -0.114176825 0.11615415 -0.098828465 -0.030327186 -0.051322673 -0.06690624 0.044395283
0.07159299 -0.08252227 -0.058393493 0.063803375 -0.015109509 0.029179735 0.06480293 -0.046764016
-0.07023175 0.04489407 -0.045800526 -0.08329823 -0.06356784 -0.05819318 0.124129124 0.021701062
0.05307985 0.016241858 -0.08524884 0.090204746 -0.019466177 -0.03330533 0.101856 -0.063884415
0.025382295 -0.107939534 0.06344745 0.0496514 -0.10347194 0.06974442 0.013730999 -0.06454562
0.106267914 0.052611016 0.04353795 -0.04644795 -0.06854005 -0.06729421 0.04687964 0.03364098
-0.07559299 0.11326268 0.07238582 -0.04772596 0.0646308 -0.05546752 0.03920003 0.104041606
-0.11085634 -0.063049994 -0.0070634023 0.018405473 -0.102901004 -0.08227319 -0.014132756 -0.018113794
0.03232944 0.01588349 0.025634825 0.01141545 0.014367148 -0.007234917 0.04489033 0.08530069
-0.059085447 -0.06318015 0.055537116 -0.09039171 0.08123225 0.06440012 0.020870542 -0.051506866
0.007058089 -0.09452869 -0.11246043 0.117708534 -0.10932889 -0.10373051 -0.046728265 0.017799016
0.031154292 -0.05973829 -0.006647184 -0.02791372 0.10458399 0.1128422 0.051428456 -6.923678e-05
0.093741685 -0.09298731 0.055484813 -0.07265723 0.10134277 -0.11041108 0.046438266 -0.102772936
0.07481062 0.028427945 0.10960087 -0.094277196 0.08045113 -0.08342816 -0.06748618 0.048057366
-0.01729537 -0.095515825 -0.10374408 -0.032453135 0.034604356 0.122194156 0.09204154 0.0020485818
-0.07582328 -0.1081356 0.11167111 -0.06878778 -0.021582766 -0.1005346 -0.075707585 0.024606794
-0.028549103 0.014314234 -0.0003519455 0.008579928 -0.02476807 -0.0031888676 0.054333493 0.09198713
0.10739506 -0.101311706 -0.10545133 -0.01868175 -0.009535819 0.0725818 0.118894964 0.034395933
-0.0876623 -0.01182988 0.081212044 0.047424626 -0.0869112 0.00833887 -0.119551785 -0.04400416
0.08968871 -0.0519879 0.07893389 -0.10195929 0.11101604 0.06239599 0.08102921 0.035473667
0.008855835 -0.057085466 -0.06816001 -0.08583993 0.104836784 -0.043358058 0.0034067307 -0.11751336
0.03422398 -0.040115405 -0.098947585 0.015756264 -0.11515179 -0.011810454 -0.100884266 0.07913226
-0.09710553 0.021436058 0.062676676 -0.0998767 0.08149725 0.10763727 -0.0765692 0.010467112
0.0392783 0.106909275 0.09765518 -0.10446352 -0.101688124 -0.110419534 -0.051007725 -0.025186578
-0.053680602 0.082365334 -0.086210124 -0.10656537 -0.09771457 -0.07395563 0.12243308 0.015714223
-0.02824764 -0.039754152 -0.096208125 -0.04241015 0.065853044 0.073040955 0.08511288 0.0033166641
-0.07257289 -0.0811295 0.1214426 -0.11298099 0.023737267 -0.011912198 0.11267834 0.054499157
-0.035373542 -0.10847199 0.0058659473 -0.087430015 -0.0132350875 0.023739876 0.06081781 -0.035787243
-0.084379196 -0.1178786 -0.12286422 0.015679106 -0.08377486 0.0044698115 -0.05925741 -0.084591135
0.07976486 0.060960587 0.08280154 0.11987705 -0.09044236 -0.06659292 -0.09423208 0.08277766
0.067342356 0.09379815 -0.09133263 -0.067036316 0.121798106 -0.12065014 -0.08353606 0.04601884
-0.11190759 -0.043707915 0.05314128 0.101627305 -0.015310588 -0.111165315 0.0531584 0.124462284

fc2.bias f4 [128]
00000000: 4906 ccbd 2c04 a6bd f7dd 5a3d 8897 fbbd
00000010: 2305 e73d 79b9 8f3d f79b 8f3d e9c7 143e
00000020: def1 ed3d e6f1 67bd adce ab3d 485d 713d
00000030: 82ab 803d 996a 06bd 1650 8ebd 4f60 98bd
00000040: 6427 7c3c fdd6 cfbb ae5d 283a ac00 e83d
00000050: 7a92 d1bd 4019 c63c a28f 563c 2bc7 e03c
00000060: 5dc8 a33d 2d00 033e 1545 c8bc 90ac f93c
00000070: d461 95bd e156 88bd c6eb ccbd a377 013e
00000080: 4c5a aebc 5431 98bd 47f3 ddbc e28b b9bb
00000090: 51f6 b53d b647 023e 502c a1bd 02f4 f6bb
000000a0: 8ea5 e83d 8382 6b3d 5605 723d f76f 17bd
000000b0: 980a ad3c 3383 0c3c 3960 803c 1748 ac3d
000000c0: bac1 3cbd e750 a33c c525 d23d 4c26 953d
000000d0: af8d f5bd 3b0a 60bc e18d 9e3d d5a2 963d
000000e0: 4c36 f43d dd29 8fbd a723 c0bd 1cfe 3a3d
000000f0: 84a4 c83d 68fd 043e c9ea 863d 37fd 793d
00000100: c6a8 a8bd a741 7f3d 9c53 3dbc 9714 183d
00000110: b2fa 6a3d d565 c7bd 94b5 303d 3f33 19bd
00000120: 153e 463d 6b5b e0bd 2d40 90bd 3c73 b5bd
00000130: efee a93d 6d88 143e 3678 ef3d 94c7 073e
00000140: f967 233d feb8 2b3d 8e0e 033d 703d b83c
00000150: 297e 863c a0f6 c7bd b970 bf3d 1a5c afbd
00000160: 65f0 043e baa5 d43d 611a c93c 68e2 003e
00000170: f6b7 913c 2fda 15bd ff3a 81bd 86d6 86bd
00000180: 3270 8abd a668 ad3d a6b8 1c3c 2d4d d63b
00000190: 71e5 183d 09f8 f43d ab9d bf3c edf3 71bd
000001a0: 5b2b c1bd 09c6 ca3d 26f5 e3bd 6b46 533d
000001b0: 2a9a c93d 1688 8c3d f7a2 5dbb e754 a6bc
000001c0: bc7b e43d 327d 85bd 68ed 093d 1faa 1abd
000001d0: f9dd 8e3d c21f fabc 920d afbd 6d0f 42bd
000001e0: c552 c33d 124f 3d3d 7100 b9bd 592e a9bd
000001f0: 3f29 adbc f1a3 68bc ca64 17bd 44fd f43d
-0.09962136 -0.081062645 0.05343434 -0.12284762 0.112802766 0.07017798 0.0701217 0.14529385
0.11618398 -0.056627177 0.0838903 0.05892685 0.062827125 -0.032816503 -0.06948869 -0.074402444
0.015390251 -0.0063427673 0.0006422651 0.11328253 -0.10233016 0.024181962 0.013095768 0.02743872
0.07997201 0.12793036 -0.024447003 0.030477792 -0.0729405 -0.06657196 -0.10005908 0.12643294
-0.021283291 -0.074312836 -0.027093543 -0.0056624273 0.08884872 0.12722668 -0.0786978 -0.007536412
0.11359702 0.057497513 0.05908712 -0.036972012 0.021123216 0.008576202 0.015670883 0.084121875
-0.04608319 0.019936038 0.1026111 0.07282695 -0.119899146 -0.013674314 0.07741905 0.073552765
0.11924419 -0.06990407 -0.093818 0.045652494 0.09797004 0.12987292 0.065877505 0.0610325
-0.08235316 0.06231847 -0.011555579 0.03712901 0.057367988 -0.0973622 0.043141916 -0.037402388
0.04839905 -0.109549366 -0.070434906 -0.0885987 0.08297526 0.14505167 0.1169285 0.13259727
0.039894078 0.04192447 0.031996302 0.022490233 0.01641758 -0.09763837 0.09347672 -0.08562489
0.12982328 0.10383172 0.024548711 0.12586367 0.017787915 -0.03658503 -0.06310081 -0.06583886
-0.06759681 0.08467226 0.009565508 0.006539962 0.037328187 0.119613715 0.023390612 -0.059070516
-0.094320975 0.099010535 -0.11130743 0.051580828 0.098438576 0.06861894 -0.0033819058 -0.020304156
0.11156413 -0.0651802 0.033673674 -0.037759896 0.06975932 -0.030532721 -0.0854751 -0.047377992
0.095372714 0.046217985 -0.09033287 -0.08260793 -0.021137832 -0.014199243 -0.036961354 0.11962369

out.weight f4 [1, 128]
00000000: 1656 123d e5c6 e73b 2786 a6bd 28d2 5b3d
00000010: 75b0 3dbe ceac b2bc 7fe4 77bd 449c 6dbe
00000020: b0c1 69bd 5acd 1fbd e362 a9bd d123 463d
00000030: ae9f 31bd e519 44bd 52cd de3c 6977 7fbe
00000040: 1b69 e73d 71b9 cd3d 41b0 1c3d d09b 82bc
00000050: b1a2 d53c 234a c23c 2f9e 5b3d b2e8 47be
00000060: 1668 3c3c 2f73 90be 27a3 cabe 1a7a 4fbd
00000070: c939 b0bd 864a c3bd 4b14 22be 7ae4 eebe
00000080: f67e 013e f25b 40be 8b49 a13d 16ed c4bc
00000090: 4531 7bbe 2ee6 09be 972e 1fbe 88d1 f9bb
000000a0: 92d4 0a3d 655b 0f3e 1da2 2dbd 0916 b8bc
000000b0: abdb 1d3b 4e8b c7ba 1800 c0bd 0a56 cabc
000000c0: 0cf5 fc3d 72ed abbe 4ef8 c8bd 848e 77be
000000d0: d20a 3f3d 0f48 68be 9a2a 083d 08a5 433c
000000e0: 441a 65be b03a 00be 3581 923c af67 16bd
000000f0: 04de 97bc 64fd 2dbe 0499 d8bd 5422 8d3d
00000100: 159d 17be c849 44be 6f29 28bd 6abf 69be
00000110: f953 d23b 32a3 0e3e 8bfb 3cbe e9a1 b4bd
00000120: 8863 a63d 60d3 97bd d5d2 663d b797 c3bc
00000130: 5092 513d 10c9 ccbe e3d1 b8bd 1291 8cbd
00000140: e60d 73bc 34dc 1fbe e4b5 4c3c b961 d0bc
00000150: d575 3fbc e2d3 f93d 38dd c53b b795 193d
00000160: d0dd 82be 3140 90be e3f0 393d 8787 efbe
00000170: 9af9 f73d 5635 74be f321 00be f99e b23d
00000180: 697e 92be 664f 28be 71f8 88bb a605 91bd
00000190: 306f cfbc 0152 0abd 9c4d 5abe 3cea 06bd
000001a0: 285f 0b3e 0cce 993c 68a7 0a3d 1fe5 443d
000001b0: 6dde 6c3d d5f8 81bc f852 b33d 1285 523d
000001c0: c3b9 49be 7fe5 37bd 95fa 653d 1b4b 5fbc
000001d0: dd30 d3bc 8e1c d93d 112f 9c3d 2fd9 7fbc
000001e0: ae83 05be 27b4 cdbb 095a a13d 0522 503d
000001f0: 1a31 2ebe d0cc ac3d a81f 893d 7d7f 57be
0.03572663 0.0070732706 -0.08131056 0.053667217 -0.18524344 -0.021810915 -0.060520645 -0.23204142
-0.05706948 -0.039014198 -0.08270814 0.048374 -0.043365173 -0.047876257 0.027197514 -0.24947895
0.11299344 0.10045136 0.038254026 -0.015943438 0.026078554 0.023716992 0.053617653 -0.1952236
0.011499425 -0.28212878 -0.395776 -0.050653554 -0.08604772 -0.095356986 -0.15828054 -0.4665869
0.12646088 -0.18785074 0.07875355 -0.024038833 -0.24530514 -0.13466713 -0.15545116 -0.007623855
0.03389413 0.13999708 -0.04239093 -0.022471445 0.002408723 -0.0015224011 -0.09375018 -0.02469923
0.123514265 -0.33579594 -0.09812985 -0.24175459 0.04664118 -0.22683738 0.033243753 0.011941202
-0.22373301 -0.12522388 0.017883876 -0.036719974 -0.018538482 -0.16991192 -0.105760604 0.06891313
-0.14806016 -0.1916877 -0.04105514 -0.22826925 0.0064187017 0.13929442 -0.18455331 -0.088199444
0.08124453 -0.074133635 0.05635341 -0.023876054 0.051164925 -0.3999715 -0.09024408 -0.068636075
-0.014834857 -0.15611345 0.012494538 -0.025437223 -0.011685808 0.121986166 0.006038334 0.037496295
-0.25559855 -0.28173974 0.045395743 -0.46783087 0.121081546 -0.23848471 -0.1251295 0.08721728
-0.28612068 -0.16436538 -0.004180007 -0.070811555 -0.025321573 -0.03376961 -0.21318668 -0.032938227
0.13610518 0.018775009 0.033851057 0.04807007 0.05782931 -0.015865723 0.087560594 0.051396437
-0.19699769 -0.0448966 0.056147177 -0.013628746 -0.025780136 0.106011495 0.07626165 -0.015615745
-0.13038513 -0.0062775793 0.07878501 0.050813694 -0.17010918 0.084375024 0.06695491 -0.21044727
