experiments/2022-6-29_linear/save/linear_bin_class1000.pth (torch, 49299 bytes, 5 tensors)

fc1.weight f4 [64, 51]
000000 ab fb 04 3d c7 c2 99 3d 5d a0 06 bd dd 73 5c 3d
       0.03246657 0.07507854 -0.032867778 0.053821433
000010 39 df 95 bd 11 f7 e6 3c ee a6 11 be 7a 7e 23 3d
       -0.07317967 0.028193982 -0.14223835 0.03991554
000020 ec bb fc 3d c5 6a 37 be e6 66 a6 3d 6c 48 d6 3c
       0.12340531 -0.17911823 0.08125095 0.02615758
000030 ed 32 f3 3c 92 01 c2 bc 87 39 8a 3d 7a a9 c4 bd
       0.02968737 -0.02368239 0.06749254 -0.096026376
000040 53 68 85 3d 28 e9 a8 3c f0 bb 10 be bb 5d ef bb
       0.06514039 0.02061899 -0.14134192 -0.0073048747
000050 58 49 84 bd 65 39 bf bd c1 5b cc bd 78 14 be 3d
       -0.06459302 -0.09337119 -0.09978438 0.09281248
000060 50 34 3e be 7f ff dc bd 86 28 22 bd 90 80 24 be
       -0.18574643 -0.107909195 -0.039589427 -0.16064668
000070 28 e2 f5 bc 41 b2 0d be ab d1 53 3d 57 b2 27 be
       -0.030015066 -0.1383753 0.051713627 -0.16376625
000080 22 50 dd 3d 10 80 58 bd 1e aa c0 bd f2 13 b1 3d
       0.108063 -0.052856505 -0.09407447 0.086463824
000090 e1 7e 5d bd c6 ed 83 3d 36 96 79 3c 71 97 f3 bd
       -0.05407608 0.06441836 0.015233567 -0.118941195
0000a0 24 95 7c bc 5f ca 1b bd 09 bf 6d bc ad 11 95 3d
       -0.015416417 -0.038034793 -0.014510878 0.07278762
0000b0 ec 9a a5 3d 39 40 0b be 4c b9 c4 3c 9b b0 cc 3c
       0.0808619 -0.13598718 0.024014138 0.024986556
0000c0 fb 68 55 bb ae d9 12 be 68 05 0e be 52 99 5d bd
       -0.0032563794 -0.1434085 -0.1386925 -0.054101296
0000d0 fd f6 db bd de 4f eb 3d a5 33 25 3d fb 92 6d 3d
       -0.10740469 0.11489843 0.040332455 0.0580015
0000e0 a2 64 35 3d 04 a4 1f bb 31 6f e0 3d 5c c2 cb bd
       0.044285424 -0.0024359236 0.10958708 -0.099491805
0000f0 dc 73 10 3c b1 bc c3 bd 54 db 30 3d a8 85 45 bd
       0.0088166855 -0.095574744 0.043177918 -0.048223168
000100 1b bf 2f 3d 91 fd ee bc cf d9 ed 3d 37 f9 a9 bd
       0.04290686 -0.029173644 0.11613809 -0.08299487
000110 90 08 ab bd 35 0b ab bd 4d f8 00 3e 44 23 3f 3d
       -0.083512425 -0.08351747 0.12594719 0.04666449
000120 d2 f9 09 3e aa ab ec bd 4c 39 0e be 3e 5d e0 bd
       0.13474205 -0.1155618 -0.13889045 -0.109552845
000130 79 e9 c0 bd 0d 50 68 3d 49 60 4d 3d 52 4a ee 3d
       -0.094195314 0.056716967 0.050140653 0.11635269
000140 5f 19 94 bd e0 7f c3 bd 66 28 98 3d 5a d5 67 bd
       -0.07231402 -0.095458746 0.074295804 -0.056599952
000150 51 0d ae 3d db 1a 08 bd c1 0c a4 3d 1d d1 de bd
       0.08498634 -0.033228736 0.08010245 -0.10879729
000160 de b8 90 bd 03 dd 2e 3d f2 81 f2 3c 99 3b 12 bd
       -0.070665106 0.042691242 0.029602978 -0.035701368
000170 72 f0 aa 3d 33 f4 c2 3d 9c f6 cf bd f0 19 99 bd
       0.083466426 0.095192336 -0.10154459 -0.0747565
000180 aa 4b 03 3e 38 89 41 bd a6 55 4b bd fc bd 0a be
       0.12821832 -0.047250003 -0.049642228 -0.13549036
000190 97 3a a4 bd ad 46 0f 3d 1f 69 97 bc ed 2a d0 bd
       -0.080189876 0.03497951 -0.018482743 -0.101644374
0001a0 58 42 57 3b 6f e4 c3 bd 0c 4d f3 bd e7 ea 9d bd
       0.003284594 -0.095650546 -0.1187993 -0.0771082
0001b0 b4 fd fa bd 21 9a b6 bd 26 55 0f 3e 07 a9 d8 3c
       -0.12255421 -0.089161165 0.13997325 0.026447786
0001c0 18 bf 30 3d 83 bc 05 be 0e 59 bc bd 3a e9 3e bd
       0.04315099 -0.13060193 -0.09196673 -0.04660914
0001d0 f2 5f b3 3c 6e 57 fc bd 18 21 77 bd 42 af ab bd
       0.021896336 -0.123213634 -0.060334295 -0.08383037
0001e0 b3 73 cb 39 ec 6b 55 bd cb fa 1e bc 31 54 c2 bd
       0.0003880538 -0.052104875 -0.009703348 -0.094887145
0001f0 b5 d7 c4 bd 73 4e a7 bd 8a 53 44 bd 10 59 e2 bd
       -0.09611455 -0.0816926 -0.04793123 -0.110521436
000200 46 74 f0 3d f4 a8 e3 bc 09 be f6 3d 9a b5 32 3d
       0.117409274 -0.027790524 0.12047965 0.04363022
000210 9c d7 f2 bd c5 75 c6 3d 84 cf 1d bd c5 db 5b bd
       -0.118575305 0.096904315 -0.03852798 -0.053676385
000220 a2 0b ee bd 28 8d 0e be a1 19 24 3d 3c 94 fa bc
       -0.116233125 -0.13921034 0.040063504 -0.030588262
000230 52 4c 5f 3d 04 59 eb bd 71 e9 d4 3d 8f 82 d2 bd
       0.054516144 -0.11491588 0.10396088 -0.10278808
000240 43 13 c6 bc ae 98 ef 3c a1 0c 94 3d b2 84 e7 3d
       -0.024179107 0.029247608 0.07228971 0.113046065
000250 0a 9f 02 3e 63 64 e3 bd 4f 58 10 3d 66 b3 76 bd
       0.12755981 -0.111031316 0.035240468 -0.06022968
000260 5b 69 7b bc b3 79 8e bd 46 47 15 3e 27 6b d2 bd
       -0.015344943 -0.06956806 0.1457797 -0.10274344
000270 ce 6c e3 3d 85 35 8c 3d 00 83 3a 3d 43 9b 2e bd
       0.11104737 0.068461455 0.045535088 -0.042628538
000280 8a 1b 11 3e 36 39 fc 3c c3 1f 62 3d 8a cf d8 bd
       0.14170662 0.030788999 0.05520607 -0.1058646
000290 a1 d8 70 3d 2b 7e 5b 3c 31 30 37 bd eb 55 f6 3d
       0.058800343 0.01339678 -0.044723693 0.12028106
0002a0 4a 57 8c 3d 64 86 74 bd 93 19 91 bd 54 8c e8 3c
       0.068525866 -0.059698477 -0.07084956 0.028387226
0002b0 47 1b c6 3d b8 79 12 bd f6 e7 2a bd 9c bc 00 bd
       0.096731715 -0.03576061 -0.04172512 -0.031429872
0002c0 88 2d d6 bd f5 8f a8 3d a8 3c 01 3e 84 fc 06 be
       -0.10457903 0.082305826 0.12620795 -0.13182265
0002d0 0b d6 8f 3d 54 b1 b6 3d 54 5f d0 3c c4 a8 95 bc
       0.07023247 0.089205414 0.025436081 -0.01826895
0002e0 17 b2 bb 3d 96 bf 96 3d 09 1f b4 3d 2d 7e c4 bb
       0.09164827 0.07360761 0.08794982 -0.0059964866
0002f0 ef ca 17 bd a0 f9 49 3d a5 dc bc bb 8a d0 2a bd
       -0.037058767 0.049310327 -0.0057636076 -0.041702785
000300 c9 a4 fc 3d ad 31 0f 3e 03 df 62 bc 04 38 82 3a
       0.12336118 0.13983794 -0.013847115 0.0009934907
000310 49 14 a9 3c 69 7a 08 bc 0e 16 88 3d b3 85 72 3d
       0.020639556 -0.008329966 0.066448316 0.059209537
000320 de 36 02 be 74 7a 93 bc d4 90 0d 3e d8 88 5f 3d
       -0.12716243 -0.018002726 0.13824779 0.054573864
000330 c0 37 e4 bb 55 e6 ac bd ad 73 af bd 5e 71 00 be
       -0.0069646537 -0.0844237 -0.08566985 -0.12543246
000340 11 f5 3a bd 1c b1 41 3d ff da b6 3d 84 67 84 3d
       -0.04564387 0.047288045 0.08928489 0.064650565
000350 c2 7e fd bd 08 75 ac bd 71 08 b5 bc fd b4 0a 3e
       -0.12377693 -0.084207594 -0.022098752 0.13545604
000360 20 f0 a5 3c ad 88 14 bd d1 49 6d 3d d8 74 5a bd
       0.020256102 -0.036263157 0.057931725 -0.053334087
000370 47 9e b9 bd ae 50 d1 3d ef 65 82 bd 13 f5 e5 bc
       -0.09063392 0.102204666 -0.063670985 -0.028070962
000380 c8 a4 0e be 82 ee bf 3d c1 45 d9 3d ef 07 51 3d
       -0.13930047 0.09371664 0.106090076 0.051032957
000390 64 f6 c7 bd 1a 84 0d be 20 ea e8 bd 97 d9 d5 3d
       -0.09763792 -0.13819924 -0.11372781 0.104418926
0003a0 f8 ae 89 3d 0e 53 f1 3d e9 3b 96 3d 87 29 11 3d
       0.06722826 0.117834195 0.07335646 0.035439994
0003b0 86 bb b3 ba 8e 18 da bd f0 b3 f5 bd 50 1e 06 be
       -0.0013712503 -0.10649215 -0.11997211 -0.13097501
0003c0 9f ca 6a 3d 6b cc 8c bd d7 db e6 bc b9 0a a5 bd
       0.05732214 -0.06874927 -0.028181 -0.08058686
0003d0 c7 07 d1 bc 0b d8 c9 bd 84 62 bb bd 1b 41 3e 3d
       -0.025516404 -0.0985566 -0.0914965 0.04644881
0003e0 5a 75 2a bd 41 0a b1 3d 5b 00 38 bd d8 5e d2 bd
       -0.04161582 0.08644534 -0.044922214 -0.10271996
0003f0 10 65 ca bc bc 03 8b bd 68 79 2f bd 62 81 08 be
       -0.024706393 -0.06787822 -0.04284039 -0.13330606

fc1.bias f4 [64]
000000 b5 57 a2 bd 55 11 ae bd b8 d6 1f 3d 5c a5 b7 3c
       -0.07926885 -0.084993996 0.03902313 0.022417717
000010 1c 70 23 bd 29 cd f5 3d bc 8f f7 bd 0f 54 4c 3d
       -0.039901838 0.12002022 -0.12087962 0.049884852
000020 a5 af 9d bd b6 69 02 bd 3b 12 0a be d2 14 d6 bd
       -0.07699517 -0.031839095 -0.13483517 -0.1045319
000030 e8 50 f3 bd 8d fd 81 3d 77 c6 57 bd 5f 9c 97 3d
       -0.11880666 0.06347189 -0.052679505 0.07402872
000040 77 55 9b bd 84 98 0e bd 61 9a 95 3c dd fb ea 3d
       -0.075846605 -0.03481342 0.01826209 0.1147382
000050 1c 58 1a bd c4 13 a5 3d b8 5d 28 3d 85 8b b9 3d
       -0.037681684 0.080604106 0.041105002 0.09059814
000060 7e e3 b7 3d 50 dc 6f 3d 9f 03 2d bd 43 fa 20 bd
       0.089789376 0.058559716 -0.04223978 -0.03930117
000070 70 38 57 3d a4 c7 9e 3d ad de f5 bb 02 fe 91 3d
       0.052544057 0.07752922 -0.0075033517 0.07128526
000080 df 87 ac bd 48 d0 ad 3d 3b c1 8c bc 25 5a c5 bd
       -0.08424353 0.08486992 -0.017181983 -0.09636334
000090 33 49 8b bd f2 f7 da bd 24 57 e6 3c 8f 13 aa bd
       -0.06801071 -0.10691823 0.028117724 -0.08304512
0000a0 1a 45 24 bd e1 36 10 bc 2c e0 ae bd b2 98 b9 3b
       -0.040104963 -0.008802147 -0.08538851 0.0056639547
0000b0 28 95 91 bc e3 18 33 3d cd 7e cc 3d a7 20 ad bd
       -0.017771319 0.043724906 0.09985123 -0.084534936
0000c0 5d a7 9c 3d 98 45 43 bb 21 a6 a3 bd b9 0e 82 bd
       0.076491095 -0.002979612 -0.07990671 -0.063504644
0000d0 51 cf 16 3d a1 7d 11 3d 3b ad 93 bb 55 c5 8e bd
       0.036818806 0.0355202 -0.0045067347 -0.06971232
0000e0 cf 8f 90 3d 1a c6 c0 3c 6d 64 0b be 2d c5 ca bc
       0.07058679 0.023531962 -0.13612528 -0.024752224
0000f0 2f 7d 1b bd e5 b2 74 bd d1 fb 9e bd 2c ad e8 bd
       -0.03796118 -0.05974092 -0.07762874 -0.11361155

fc2.weight f4 [128, 64]
000000 a8 cc f9 3d 8a d5 e9 bd 76 f7 ed 3d fc 53 ca bd
       0.12197238 -0.114176825 0.11619465 -0.098793
000010 b8 70 f8 bc f1 c7 51 bd 24 06 89 bd 54 05 36 3d
       -0.030327186 -0.05121607 -0.06690624 0.044438675
000020 58 9f 92 3d 70 01 a9 bd 04 2e 6f bd 58 ab 82 3d
       0.07159299 -0.08252227 -0.058393493 0.063803375
000030 e0 8d 77 bc 9b a1 ef 3c 66 b7 84 3d 3c 41 3f bd
       -0.015109509 0.029251864 0.06480293 -0.04669307
000040 aa d5 8f bd d8 e2 37 3d 3d 7f 3b bd d4 6c aa bd
       -0.07023175 0.04489407 -0.04577564 -0.083215386
000050 db 2f 82 bd a9 15 6e bd 86 52 fe 3d 6e ac b2 3c
       -0.06356784 -0.058126125 0.12418084 0.021810737
000060 5d c6 59 3d 72 89 85 3c f2 96 ae bd 44 bd b8 3d
       0.05316769 0.01630089 -0.08524884 0.090204746
000070 87 34 9f bc 70 1c 08 bd e1 99 d0 3d 1d b2 82 bd
       -0.019434227 -0.033230245 0.101856 -0.06381629
000080 88 ee cf 3c 73 d9 dc bd bd f0 81 3d 44 5f 4b 3d
       0.025382295 -0.10783663 0.06344745 0.0496514
000090 19 e9 d3 bd 2a d6 8e 3d 57 5a 61 3c 7e 30 84 bd
       -0.10347194 0.06974442 0.013754449 -0.06454562
0000a0 fe a2 d9 3d a6 7e 57 3d d9 54 32 3d cb 2b 3e bd
       0.106267914 0.052611016 0.04353795 -0.046428483
0000b0 ba 5e 8c bd 93 c0 89 bd 7e 55 40 3d 20 cb 09 3d
       -0.06854005 -0.06726184 0.04695653 0.03364098
0000c0 e8 ae 9a bd 44 f6 e7 3d 04 3f 94 3d 4c 7c 43 bd
       -0.07552892 0.11326268 0.07238582 -0.04772596
0000d0 b6 71 84 3d 8e ef 62 bd 36 90 20 3d c4 13 d5 3d
       0.06467001 -0.05540424 0.03920003 0.104041606
0000e0 5a e8 e2 bd 6f 0d 81 bd 1d 74 e7 bb 13 c7 96 3c
       -0.11079474 -0.063013904 -0.0070634023 0.018405473
0000f0 c3 bd d2 bd d9 7e a8 bd 13 8d 67 bc 61 63 94 bc
       -0.102901004 -0.08227319 -0.014132756 -0.018113794
000100 e0 6b 04 3d 18 1e 82 3c 19 10 d2 3c 64 22 3b 3c
       0.03232944 0.01588349 0.025642442 0.011421774
000110 30 64 6b 3c 60 74 ec bb ec de 37 3d bb b7 ae 3d
       0.014367148 -0.0072160214 0.04489033 0.085311376
000120 95 03 72 bd 98 64 81 bd e3 7a 63 3d 4a 1f b9 bd
       -0.059085447 -0.06318015 0.055537116 -0.09039171
000130 18 5d a6 3d cb e9 83 3d b3 f8 aa 3c 06 ed 52 bd
       0.08123225 0.06441077 0.020870542 -0.051495574
000140 8b 47 e7 3b 42 98 c1 bd 8d 51 e6 bd 9f 18 f1 3d
       0.007058089 -0.09452869 -0.11246023 0.11772274
000150 d3 e7 df bd 1a 6b d4 bd eb 5b 3f bd 5a f8 91 3c
       -0.10932889 -0.103719905 -0.04671852 0.017818619
000160 f4 58 ff 3c 62 a5 74 bd 9f d0 d9 bb 50 ab e4 bc
       0.031170346 -0.059728034 -0.006647184 -0.02791372
000170 33 33 d6 3d 3e 1f e7 3d a5 a6 52 3d 62 7c 6f b8
       0.10458984 0.11285256 0.051428456 -5.709788e-05
000180 a4 fb bf 3d f8 65 be bd 0b 44 63 3d 50 cd 94 bd
       0.093741685 -0.09296793 0.055484813 -0.07265723
000190 cc 8c cf 3d 34 1f e2 bd d4 3b 3e 3d 9e 7a d2 bd
       0.10134277 -0.11041108 0.046443775 -0.102772936
0001a0 4f 36 99 3d b9 e1 e8 3c 6c 76 e0 3d 64 14 c1 bd
       0.07481062 0.028427945 0.10960087 -0.09427717
0001b0 90 c3 a4 3d a1 d8 aa bd 08 30 8a bd cd d7 44 3d
       0.08045113 -0.083421 -0.067474425 0.048057366
0001c0 1e 97 8d bc cd 9d c3 bd c7 77 d4 bd 94 ed 04 bd
       -0.017283972 -0.095515825 -0.10374408 -0.032453135
0001d0 a7 c2 0d 3d 92 46 fa 3d 46 80 bc 3d 80 41 06 3b
       0.034609463 0.122204915 0.09204154 0.0020485818
0001e0 ae 43 9b bd df 71 dd bd d3 b3 e4 3d 9c e0 8c bd
       -0.07581268 -0.10812735 0.11167111 -0.06878778
0001f0 57 ce b0 bc 16 e5 cd bd 94 0c 9b bd 30 94 c9 3c
       -0.021582766 -0.1005346 -0.075707585 0.024606794
000200 cf df e9 bc 40 86 6a 3c 96 9c 71 ba a9 3f 04 3c
       -0.028549103 0.014314234 -0.00092167535 0.008071818
000210 68 e6 ca bc 31 dd 9a bb cc 8c 5e 3d 56 1b bb 3d
       -0.02476807 -0.004726075 0.054333493 0.09136073
000220 f1 f1 db 3d 83 7c cf bd de f6 d7 bd 78 0a 99 bc
       0.10739506 -0.101311706 -0.10545133 -0.01868175
000230 20 3c 1c bc 2b 83 92 3d 34 7f f3 3d bd af 08 3d
       -0.009535819 0.071539246 0.118894964 0.033370722
000240 4b 88 b3 bd 1d d2 41 bc 4d 98 a5 3d 03 5c 3d 3d
       -0.0876623 -0.01182988 0.0808569 0.046230327
000250 80 fe b1 bd 85 92 f1 3b 88 58 f6 bd 3a bb 3a bd
       -0.0869112 0.007372203 -0.12028605 -0.04558871
000260 1c 16 b5 3d 49 6f 58 bd 17 a8 a1 3d 08 d0 d0 bd
       0.08842108 -0.052840505 0.07893389 -0.10195929
000270 cc 6b e2 3d 84 22 7b 3d a4 f2 a5 3d 6e 44 0d 3d
       0.11055717 0.061312214 0.08102921 0.034489088
000280 10 18 11 3c 0f e5 6f bd 7a 97 8b bd d8 cc af bd
       0.008855835 -0.058568057 -0.06816001 -0.08583993
000290 ab b4 d6 3d 38 98 31 bd cb 20 49 3b d8 aa f0 bd
       0.104836784 -0.043358058 0.0030689712 -0.11751336
0002a0 72 2e 0c 3d 0d 50 24 bd 08 a5 ca bd 82 86 7d 3c
       0.03422398 -0.040115405 -0.098947585 0.015473964
0002b0 b4 d4 eb bd f2 36 49 bc e1 e0 d0 bd 18 10 a2 3d
       -0.11515179 -0.012281166 -0.10199142 0.07913226
0002c0 da c1 c8 bd ac 9a af 3c a1 5c 80 3d 28 8c cc bd
       -0.09802599 0.021436058 0.062676676 -0.0998767
0002d0 00 ca a5 3d 32 90 da 3d 50 d0 9c bd 40 7e 2b 3c
       0.08095169 0.10672034 -0.0765692 0.010467112
0002e0 de 40 1d 3d 40 e5 d9 3d 70 ff c7 3d f8 f0 d5 bd
       0.03839194 0.10639429 0.09765518 -0.10446352
0002f0 dd 41 d0 bd a3 23 e2 bd 7a ed 50 bd 15 54 ce bc
       -0.101688124 -0.110419534 -0.051007725 -0.025186578
000300 31 e0 5b bd 28 af a8 3d 93 6f b0 bd 2f 23 da bd
       -0.053680602 0.082365334 -0.08615031 -0.10651242
000310 94 1e c8 bd 4e 21 97 bd 32 be fa 3d 52 45 81 3c
       -0.09771457 -0.07379399 0.12243308 0.015780125
000320 98 67 e7 bc 40 d5 22 bd c4 08 c5 bd 44 b6 2d bd
       -0.02824764 -0.039754152 -0.096208125 -0.04241015
000330 f6 dd 86 3d e2 cf 95 3d a9 4f ae 3d 11 6b 60 3b
       0.065853044 0.07315041 0.08511288 0.0034243504
000340 18 a1 94 bd 39 27 a6 bd 64 ca f8 3d 8d 20 e7 bd
       -0.07257289 -0.0811295 0.12147978 -0.112855054
000350 a8 74 c2 3c a0 80 41 bc 2f ec e6 3d a7 e8 5f 3d
       0.023737267 -0.011810452 0.11275517 0.054665234
000360 4b 58 10 bd 93 f7 dd bd 22 37 c0 3b 82 0e b3 bd
       -0.035240453 -0.10838237 0.0058659473 -0.087430015
000370 a6 0c 58 bc c7 68 c3 3c 19 1c 79 3d 2b 29 12 bd
       -0.013186609 0.023853673 0.06081781 -0.035683792
000380 00 cf ac bd d1 18 f1 bd 3c a0 fb bd 78 71 80 3c
       -0.084379196 -0.117723115 -0.12286422 0.015679106
000390 27 92 ab bd 7f 77 92 3b a1 92 72 bd 1e 3e ad bd
       -0.08377486 0.0044698115 -0.059221867 -0.084591135
0003a0 c2 5b a3 3d cf b1 79 3d db 93 a9 3d 81 91 f5 3d
       0.07976486 0.060960587 0.08280154 0.11990643
0003b0 d8 39 b9 bd cf 47 88 bd 8d bf c0 bd 55 87 a9 3d
       -0.09044236 -0.066543214 -0.094115354 0.08277766
0003c0 8a 1d 8a 3d 3f 19 c0 3d 9a 0c bb bd 56 4a 89 bd
       0.067439154 0.09379815 -0.09133263 -0.067036316
0003d0 aa 8f f9 3d 37 e5 f6 bd f4 14 ab bd 40 7e 3c 3d
       0.12185605 -0.12055438 -0.08353606 0.04601884
0003e0 db fe e4 bd c0 ce 32 bd ac aa 59 3d fa 21 d0 3d
       -0.11181422 -0.043654203 0.05314128 0.101627305
0003f0 43 d9 7a bc a4 aa e3 bd 9f bc 59 3d 15 e6 fe 3d
       -0.015310588 -0.111165315 0.0531584 0.124462284

fc2.bias f4 [128]
000000 80 48 ca bd 45 b5 a5 bd 8d ab 28 3d 9e f3 f8 bd
       -0.098771095 -0.08091215 0.04117923 -0.12155841
000010 3a 49 ae 3d a2 5c 89 3d df 59 7c 3d 26 3c df 3d
       0.085100606 0.067071214 0.061609145 0.10900144
000020 a5 30 df 3d 9a 00 6c bd 7e 28 92 3d 6e 37 8a 3d
       0.1089795 -0.05761776 0.071366295 0.067488536
000030 6a 67 69 3d 97 bf 0b bd b9 f7 8c bd 1a 39 a5 bd
       0.05698339 -0.03411826 -0.06883187 -0.08067532
000040 25 cc d1 3c fa 4c 71 bb 78 53 c1 3b b4 4f e5 3d
       0.025610039 -0.0036819563 0.005899843 0.11196843
000050 b3 4a d0 bd 18 06 e9 3c 89 7f b2 3c 52 29 4e bb
       -0.10170498 0.028445289 0.02178933 -0.0031457734
000060 05 b3 a8 3d ae de ac 3d ff 5d a7 bd 21 dd ba 3c
       0.0823727 0.0844091 -0.08172225 0.02281052
000070 2e dc 99 bd 5f 4b 8d bd 9c 16 d5 bd 81 20 56 3d
       -0.07512699 -0.068991415 -0.10404703 0.052277092
000080 9d 0b 5d bc b1 dd a1 bd 7c 63 cd bc 6c ff 12 bc
       -0.013491538 -0.079036124 -0.025071852 -0.00897203
000090 06 c2 4c 3d 66 a1 dc 3d 65 30 a9 bd 1b 7d 00 bc
       0.049989723 0.10772972 -0.08261184 -0.0078423275
0000a0 75 7b f6 3d ad f7 a4 3d 8b 67 6c 3d bd d4 19 bd
       0.12035266 0.08055053 0.057715934 -0.0375564
0000b0 4d 0e b2 3c 07 72 0b 3c 56 d3 2d 3b 14 3f a7 3d
       0.021735335 0.008511073 0.002652367 0.08166328
0000c0 95 d9 2f bd 17 58 ea bc 0e 73 b4 3d 13 54 0d 3d
       -0.04293211 -0.028606458 0.088110074 0.034504008
0000d0 e5 3e f3 bd 7c b1 c4 bc 61 7c ab 3d 8b ca 9a 3d
       -0.118772306 -0.024010412 0.08373333 0.07558163
0000e0 7b e8 af 3d 13 a1 95 bd a3 4e bf bd 02 2d 25 3d
       0.08589264 -0.07306113 -0.09341171 0.040326126
0000f0 a1 a5 c4 3d 4e d3 d4 3d a5 ff 49 3d d3 0a 95 3d
       0.09601904 0.10391866 0.049316067 0.07277455
000100 9b 51 b0 bd 1a 1c 04 3d d7 0b 51 bc 3f 59 b9 3a
       -0.08609315 0.032253362 -0.0127591705 0.0014140977
000110 13 34 71 3d 35 5f c0 bd 2d 1a 69 3c 0f 42 32 bd
       0.058887552 -0.09393159 0.014227432 -0.04352003
000120 76 7d 7c 3d db 3b e4 bd 7e 73 8d bd 61 b8 b6 bd
       0.061643086 -0.11144229 -0.06906794 -0.08921886
000130 c8 d1 bd 3d 0a 12 a9 3d c1 06 d6 3d 7a c9 fd 3d
       0.09268528 0.08255394 0.10450507 0.12391944
000140 24 e8 1b 3d 84 ea 8f 3c 4c fc 0d 3d 51 ca a4 3c
       0.038063183 0.01756788 0.034664437 0.020116003
000150 81 4c 76 3c 64 c4 c1 bd ab 48 c4 3d 6d 7e ad bd
       0.015032888 -0.09461287 0.09584173 -0.084713794
000160 34 c0 b8 3d 57 67 78 3d 1d 36 02 3d 8b 38 56 3d
       0.09021035 0.060645428 0.031789888 0.052300017
000170 a8 8d d5 3c c8 4f 78 bd c7 af 87 bd 93 75 82 bd
       0.026068524 -0.06062296 -0.06625324 -0.06370082
000180 45 27 99 bd f0 44 70 3d 72 3d 18 3c b2 0d 50 ba
       -0.07478193 0.058659494 0.009291993 -0.0007936611
000190 49 2c 0a 3d ed 90 ec 3d 5c 4a 05 bc 27 6f 75 bd
       0.03373364 0.1155108 -0.008135404 -0.059920456
0001a0 14 49 ba bd 96 c0 d2 3d 40 4d e2 bd 48 c6 76 3d
       -0.0909597 0.10290639 -0.110498905 0.06024769
0001b0 66 44 de 3d 3b de 88 3d 1f 6d 9f ba 5f 07 88 bc
       0.1085289 0.06683012 -0.0012163258 -0.016605077
0001c0 ba d2 a6 3d 03 dd 87 bd 69 bb 31 3d c3 f7 1d bd
       0.08145662 -0.066339515 0.04339162 -0.038566362
0001d0 41 32 87 3d a1 89 e4 bc 00 3c ab bd 6c c6 43 bd
       0.06601382 -0.027897658 -0.083610535 -0.04779665
0001e0 15 5d 99 3d 1d 02 3b 3d 40 08 b5 bd 0e a6 a6 bd
       0.07488457 0.045656312 -0.08839464 -0.08137141
0001f0 38 6a d0 bc 86 51 46 bc 15 8b 10 bd 3f 34 b1 3d
       -0.025441274 -0.012104398 -0.03528889 0.08652543

out.weight f4 [1, 128]
000000 2b 15 04 3d 0c ac a2 3b 43 bf 8f bd a9 28 4a 3d
       0.03224675 0.0049643572 -0.07018902 0.049355183
000010 60 7b 21 be ba f5 8a bc bf c7 38 bd 5f ed 5c be
       -0.1576972 -0.016962875 -0.045112368 -0.21574925
000020 5a a2 05 bd 17 46 24 bd a8 51 93 bd df c9 6c 3d
       -0.032625534 -0.040105905 -0.07193309 0.057809707
000030 29 fe ea bc da 93 48 bd 0e 53 cf 3c fd e1 80 be
       -0.028685646 -0.048969127 0.025308158 -0.25172415
000040 1b ec e8 3d 5c de cb 3d cf 52 23 3d 7e dd 18 b9
       0.113731585 0.09954521 0.039873894 -0.00014578362
000050 a8 eb c3 3c 01 0e f3 3c c2 22 6c 3d c8 68 3b be
       0.02391608 0.029669764 0.057650335 -0.1830169
000060 9c d0 99 3c 05 17 83 be 23 35 c6 be aa 95 33 bd
       0.01877623 -0.256035 -0.38712415 -0.043843903
000070 20 49 b5 bd c5 72 c8 bd 1d 4a 24 be 44 35 e6 be
       -0.08851838 -0.097875156 -0.16043897 -0.44962513
000080 6f 8f 01 3e 6a 27 42 be dd 90 9f 3d 91 2e ab bc
       0.12652372 -0.18960348 0.07791302 -0.020896228
000090 06 b9 6f be 71 3a da bd a3 0d 21 be 65 f7 03 bc
       -0.23410425 -0.10655678 -0.15727858 -0.008054589
0000a0 ff 70 4b 3d 11 e6 17 3e d8 52 30 bd db 44 c6 bc
       0.04966831 0.14833857 -0.043047756 -0.024202755
0000b0 e4 4b b4 3b 5e fe f2 ba 49 6e ba bd d7 a2 c1 bb
       0.005502211 -0.0018538942 -0.091030665 -0.0059093046
0000c0 b6 02 fb 3d 3a 99 a8 be 7d 9b a5 bd 02 ac 6c be
       0.122563764 -0.32929403 -0.08086298 -0.23112491
0000d0 bb 2e 32 3d 7d 78 68 be 46 6b 39 3d 16 b5 78 3c
       0.043501597 -0.22702213 0.04526832 0.015179893
0000e0 db c9 41 be 03 0e 02 be 47 db 6f 3c d3 1e f2 bc
       -0.18924658 -0.12700658 0.014639682 -0.029555714
0000f0 42 18 b1 bb e8 49 1a be f4 3e ca bd 18 7e 9c 3d
       -0.005404503 -0.15067255 -0.098752886 0.07641238
000100 50 54 1a be d1 48 38 be a7 c2 2a bd 69 60 5a be
       -0.15071225 -0.17996527 -0.04168954 -0.2132584
000110 5b 3d 50 3c ba 16 0a 3e 2b 16 34 be b9 01 b4 bd
       0.012709941 0.13485232 -0.17586581 -0.08789391
000120 d1 6b b1 3d 30 e2 9d bd 89 d1 58 3d 66 7e d2 bc
       0.086631425 -0.077091575 0.052934203 -0.025695037
000130 81 e0 8b 3d 03 ce be be ed 79 82 bd 57 67 1d bd
       0.0682993 -0.3726655 -0.06370912 -0.03842863
000140 71 4e 00 bc 4b e1 1a be e1 e2 a9 3c df 34 ca bc
       -0.007831202 -0.15125005 0.020738067 -0.024683414
000150 aa e1 20 bc 3d 4e f5 3d bb b8 be 3c a8 9e 10 3d
       -0.0098194275 0.119778134 0.023281446 0.035307556
000160 6c ab 6f be 8f 3f 81 be 6f 24 49 3d 11 93 e1 be
       -0.23405236 -0.25243804 0.04910701 -0.44057515
000170 48 75 f8 3d 2c f3 71 be 58 ca 01 be bd 57 ab 3d
       0.121317446 -0.23627919 -0.12674844 0.08366344
000180 83 72 93 be ab 40 23 be 5c 98 77 3a 26 a4 8e bd
       -0.28798303 -0.15942638 0.00094450056 -0.069649026
000190 47 e7 ab bc c8 0a 87 bc f7 a4 53 be c9 17 0f bd
       -0.020984305 -0.016484633 -0.20668398 -0.034934793
0001a0 09 b8 07 3e 78 9b f1 3c e3 c1 fc 3c 83 0a 73 3d
       0.13253798 0.029493079 0.030854171 0.059336197
0001b0 ae 47 89 3d 2b f2 c2 bb 4a 35 af 3d 0d 61 53 3d
       0.06703125 -0.005949279 0.08555086 0.051606227
0001c0 99 49 33 be 0c 25 43 bd 37 c4 82 3d 21 87 5e bc
       -0.17508544 -0.047642753 0.06385081 -0.013582022
0001d0 3e 73 aa bc d4 26 d6 3d 16 0f 95 3d 7f b7 90 bc
       -0.020806905 0.104566246 0.07278268 -0.017665623
0001e0 e2 2f fa bd e6 96 66 b9 4a fc 9b 3d a0 bf 44 3d
       -0.12216164 -0.00021990723 0.0761648 0.04803431
0001f0 0e 07 2f be 95 28 aa 3d 73 9b 86 3d 00 ef 4a be
       -0.17092535 0.08308522 0.06572618 -0.19817734
